models/expression.pth (torch_old, 253999 bytes, 80 tensors)

feature_extractor.con2d_1.weight f4 [8, 3, 3, 3]
-0.15861024 -0.29914466 -0.23912886 0.060308054 -0.056796663 0.2028142 -0.22514462 0.06562903
0.33552578 -0.18122526 -0.11322167 -0.03052989 -0.18105046 0.115345836 0.011467108 -0.09918573
0.10922563 0.2547327 -0.06090707 -0.124771975 0.077882506 -0.06404576 0.0022202886 0.23180918
-0.043468136 0.2681818 0.28013572 -0.11252912 0.19265752 0.32675895 -0.13703918 -0.08753343
0.30470735 -0.158017 -0.12323384 0.040088754 -0.26428667 0.08184982 0.28105795 -0.15988879
-0.030948142 0.32401782 -0.015070845 -0.17126976 -0.15605181 -0.19078416 -0.019009562 0.312857
-0.06080638 -0.038733684 0.123854615 -0.03644067 -0.11369403 -0.008404261 -0.3002113 -0.21875718
0.10091771 -0.36707866 -0.25752932 0.18563704 -0.11792891 0.09684923 0.19424391 0.026841644
-0.13964352 0.14337191 -0.06445505 -0.12593411 0.18490186 -0.12706761 0.17870823 0.10966215
-0.2988958 -0.052843492 0.03635846 -0.1943519 -0.18205687 0.16767491 -0.05658799 -0.0076565132
0.041622993 0.122842245 -0.13691624 -0.25316072 0.077177845 -0.057058066 -0.19364358 0.28495416
0.2447692 0.077289104 0.1483482 -0.14819275 -0.27526632 0.23368834 -0.12168952 -0.22105418
-0.032158643 0.09895015 0.14016868 -0.027161932 -0.17123285 -0.13212508 -0.028077291 -0.035552096
-0.27769822 0.0895424 0.25827056 0.26833984 -0.06171447 -0.23767836 -0.28256908 0.017687358
-0.07832204 -0.33066678 0.012650107 0.18302824 0.063861035 0.018362038 -0.07111404 -0.21916941
0.16367832 -0.11602716 -0.11099705 -0.005457437 0.11360858 0.002420528 -0.19922303 -0.20838703
-0.27156922 -0.18106377 -0.20302205 -0.1212398 0.26451892 0.15734802 -0.040342826 -0.022800218
-0.09682042 0.022551125 0.30752334 0.09468577 0.08029546 0.29269552 -0.048011623 -0.2877725
-0.08474458 0.023378635 -0.08120818 0.16206005 -0.028853536 0.10216787 0.09676355 0.1701832
-0.06889898 -0.013723743 0.09746765 0.05823397 0.35575283 0.27001667 -0.22247314 0.3780439
0.07506894 -0.25127932 -0.16037655 0.0803081 -0.025907645 -0.3223515 -0.10752854 0.112223946
-0.60925806 -0.1372964 0.10380877 -0.021417165 0.24737728 0.13396037 -0.38914633 0.18087186
-0.0653809 -0.4237257 -0.11984442 0.056677163 -0.026304608 -0.07843593 0.07026099 -0.13664854
-0.0052830824 -0.061144125 -0.4906342 -0.0146478 -0.0013332994 0.2859279 0.17089805 0.19973876
0.11709935 -0.11838243 0.0002528059 -0.24678628 -0.3439235 0.008022272 0.16465099 0.22908702
0.0071087 0.17889342 0.07170436 0.13967651 -0.15440041 -0.15488 -0.15283763 0.24961518
0.016074056 0.09256492 -0.05024094 -0.12698872 0.060166027 -0.29145303 -0.2910615 -0.051229447
00000000: b96a 22be 7d29 99be 32de 74be 9405 773d
00000010: 9ea3 68bd 87ae 4f3e 508c 66be 8368 863d
00000020: 09ca ab3e 1d93 39be c3e0 e7bd d219 fabc
00000030: 4b65 39be 703a ec3d 89e0 3b3c e321 cbbd
00000040: b0b1 df3d 536c 823e b179 79bd 7388 ffbd
00000050: dd80 9f3d 6c2a 83bd 4382 113b 635f 6d3e
00000060: a50b 32bd 204f 893e f36d 8f3e ab75 e6bd
00000070: 0348 453e f34c a73e 0054 0cbe ba44 b3bd
00000080: 9a02 9c3e 35cf 21be 0662 fcbd 1b34 243d
00000090: 9550 87be e1a0 a73d d4e6 8f3e e3b9 23be
000000a0: f586 fdbc aae5 a53e b5eb 76bc 5761 2fbe
000000b0: 0ccc 1fbe ec5c 43be f1b9 9bbc cb2e a03e
000000c0: 1c10 79bd 36a7 1ebd 7da7 fd3d d042 15bd
000000d0: 6ad8 e8bd 07b2 09bc 4cb5 99be e201 60be
000000e0: f2ad ce3d bcf1 bbbe e2da 83be a317 3e3e
000000f0: b684 f1bd e458 c63d e0e7 463e 02e3 db3c
00000100: b6fe 0ebe 16d0 123e 0201 84bd dff4 00be
00000110: ea56 3d3e 031e 02be 4aff 363e 8d96 e03d
00000120: df08 99be 6b72 58bd 9cec 143d 2f04 47be
00000130: 1e6d 3abe f9b2 2b3e cfc8 67bd 7de3 fabb
00000140: df7c 2a3d b794 fb3d c533 0cbe 489e 81be
00000150: 6b0f 9e3d b8b5 69bd 814a 46be 83e5 913e
00000160: c7a4 7a3e c049 9e3d 97e8 173e d7bf 17be
00000170: b5ef 8cbe ff4b 6f3e 5b38 f9bd 075c 62be
00000180: c8b8 03bd 60a6 ca3d 6188 0f3e b382 debc
00000190: aa57 2fbe cc4b 07be 5902 e6bc 139f 11bd
000001a0: 762e 8ebe 0162 b73d 0a3c 843e d763 893e
000001b0: 50c8 7cbd f561 73be e5ac 90be 14e5 903c
000001c0: 4e67 a0bd 284d a9be 6542 4f3c c16b 3b3e
000001d0: 93c9 823d fc6b 963c 3da4 91bd f26d 60be
000001e0: 4a9b 273e a69f edbd 6c52 e3bd 4dd4 b2bb
000001f0: 9dab e83d b9a1 1e3b 1f01 4cbe 6963 55be
00000200: 1f0b 8bbe c868 39be 03e5 4fbe 924c f8bd
00000210: 066f 873e d71f 213e 853e 25bd 86c7 babc
00000220: c949 c6bd 23bd b83c b373 9d3e 9dea c13d
00000230: f271 a43d 30dc 953e d6a7 44bd eb56 93be
00000240: 918e adbd 8d84 bf3c 7950 a6bd 12f3 253e
00000250: 405e ecbc 633d d13d f82b c63d 8144 2e3e
00000260: e91a 8dbd 8dd9 60bc 1f9d c73d be86 6e3d
00000270: 3c25 b63e a03f 8a3e 00d0 63be f88e c13e
00000280: bfbd 993d afa7 80be c039 24be 9378 a43d
00000290: 453c d4bc 410b a5be ec37 dcbd abd5 e53d
000002a0: 56f8 1bbf 6d97 0cbe b199 d43d 0d73 afbc
000002b0: 7850 7d3e e82c 093e 303e c7be 7936 393e
000002c0: 6ce6 85bd 93f2 d8be fe70 f5bd 5026 683d
000002d0: c37c d7bc 04a3 a0bd fee4 8f3d 98ed 0bbe
000002e0: b51d adbb 4372 7abd 6834 fbbe 53fd 6fbc
000002f0: 1bc2 aeba 2465 923e e6ff 2e3e 5188 4c3e
00000300: c9d1 ef3d 7d72 f2bd 098b 8439 8bb5 7cbe
00000310: be16 b0be d96f 033c 459a 283e ca95 6a3e
00000320: 19f0 e83b d62f 373e bcd9 923d 5c07 0f3e
00000330: 241b 1ebe dd98 1ebe 7881 1cbe 1f9b 7f3e
00000340: bdad 833c ad92 bd3d 72c9 4dbd 5509 02be
00000350: a770 763d 5539 95be 0306 95be f8d5 51bd

feature_extractor.bn_1.weight f4 [8]
0.32142547 0.53429425 0.43089232 0.32136518 0.20609564 0.27029347 0.17249112 0.30995196
00000000: e191 a43e 82c7 083f eb9d dc3e fa89 a43e
00000010: bc0a 533e e863 8a3e 83a1 303e 06b2 9e3e

feature_extractor.bn_1.bias f4 [8]
0.24669619 0.11308271 -0.060977533 0.116619445 -0.18995242 -0.03740765 -0.16155349 0.07731826
00000000: ed9d 7c3e e897 e73d 94c3 79bd 2dd6 ee3d
00000010: e382 42be c438 19bd 476e 25be 0959 9e3d

feature_extractor.bn_1.running_mean f4 [8]
0.0802861 0.07149733 -0.5003494 -0.022899676 -0.89869857 0.6827709 -1.0890974 0.022838503
00000000: 0a6d a43d 316d 923d e616 00bf 1a98 bbbc
00000010: 1c11 66bf 13ca 2e3f 8b67 8bbf d017 bb3c

feature_extractor.bn_1.running_var f4 [8]
0.029390357 0.03173478 0.08413304 0.027447978 0.20154323 0.12281088 0.2999777 0.029674659
00000000: 0cc4 f03c 54fc 013d f14d ac3d 95da e03c
00000010: 5961 4e3e 4584 fb3d ad96 993e 4518 f33c

feature_extractor.con2d_2.weight f4 [8, 8, 3, 3]
-0.16314232 -0.15976621 -0.16585757 -0.13925445 -0.1438047 -0.2112434 -0.095233954 0.00857211
-0.23865731 0.14714736 0.027099868 0.020534454 -0.11048991 0.17550923 -0.032154996 -0.28560644
0.051486745 -0.057340495 0.043117203 0.13672099 0.10718272 0.006569078 0.20958409 0.10472063
0.17362775 0.18116412 -0.026514722 -0.06576414 -0.09854342 -0.08698078 0.27170515 -0.20262787
-0.26179296 0.109398276 0.094692595 -0.015550682 -0.16376689 -0.22307406 -0.0034459415 -0.00760626
-0.0076586474 -0.0883682 0.13515276 0.1725675 0.056481577 0.05029321 -0.13933192 -0.23368105
0.03904822 -0.03176087 -0.1039609 0.037960317 -0.057752788 -0.14832065 -0.14512879 -0.08981223
-0.08755126 -0.07081684 0.06972534 0.0977519 0.013084555 0.048376754 -0.07491507 -0.25527114
-0.034042366 -0.16248228 -0.22585088 -0.2765876 -0.19142808 -0.5152699 -0.4448174 -0.17020413
-0.2512446 -0.12253482 -0.08254764 -0.24689193 -0.20558812 -0.17394054 0.065079935 0.017672703
0.13487002 -0.09497686 -0.18306655 -0.09649967 0.014438776 0.021102302 -0.035267502 -0.36565867
-0.19493157 0.077527925 -0.20649739 0.113339655 0.08804713 -0.09350283 0.013600043 0.2214755
0.05042297 0.0053212787 -0.07914307 -0.028790077 -0.039190978 -0.031872842 0.19351709 0.20574616
0.08788833 0.15017104 0.024242649 0.09813215 0.16567612 0.30000058 0.17048849 -0.080441356
0.18891048 0.17468263 -0.1935864 -0.11844157 -0.0611131 -0.26103985 -0.17480195 -0.19797383
-0.23346698 -0.2732071 -0.25514093 -0.072458886 -0.03137904 -0.1531918 -0.07946363 0.02804342
-0.040879577 -0.26356846 -0.20505993 -0.13561341 -0.2462349 -0.14773059 -0.18883833 -0.33758307
-0.20122652 -0.120797165 -0.10694818 -0.09163299 -0.13360493 -0.09109028 0.12730978 0.115941726
-0.11672316 -0.20221516 -0.045409165 -0.3134989 -0.23603584 -0.03213626 -0.19136691 -0.05915905
-0.0499828 0.098548874 0.02256624 -0.06304283 0.06755378 0.055940315 0.1357163 -0.09557006
-0.08882513 -0.0985003 -0.09139587 0.098332874 0.037279703 -0.103589185 0.066372946 0.32516843
-0.03349224 0.081668615 0.3325644 -0.15844996 -0.20128731 -0.2528234 0.044673238 -0.008800244
0.013211255 0.12671307 0.027467648 -0.081307426 0.07072812 0.11931135 0.0243313 0.1355966
0.04407482 0.23463285 0.20472918 0.09999721 0.21550857 0.0003367692 0.03502696 0.15169445
-0.06275547 0.05613818 0.18271975 -0.2380056 0.026506664 0.09218198 0.18470694 0.15648246
0.17653844 0.09557668 0.16143408 0.38442063 -0.009798079 0.16786307 0.15357454 0.35319334
0.43733856 0.12934405 0.31476173 -0.03152553 -0.11285352 0.123122215 -0.15478094 -0.21730666
-0.10606122 -0.13753968 -0.1375496 0.24702315 0.28444886 -0.11779823 0.2633218 0.10344241
-0.07214953 -0.15288551 -0.22701524 -0.07364167 -0.19535096 -0.09881035 -0.018723207 0.19121961
0.22198361 0.038307086 -0.11320988 -0.1799065 -0.13645229 -0.18195815 -0.13818766 -0.19005956
0.07042814 0.042693753 -0.20812768 -0.22688217 -0.15447502 -0.01273336 0.014182856 0.0061286665
-0.07736227 0.03164527 -0.121354125 -0.028417157 0.30781433 0.28468642 0.12168448 0.093988895
00000000: c80e 27be c199 23be 91d6 29be b898 0ebe
00000010: 8a41 13be 3150 58be 050a c3bd 0972 0c3c
00000020: 9562 74be ccad 163e 8b00 de3c df37 a83c
00000030: 8948 e2bd b1b8 333e f5b4 03bd 023b 92be
00000040: c4e3 523d dedd 6abd aa9b 303d 9600 0c3e
00000050: 9d82 db3d 6c41 d73b 369d 563e c577 d63d
00000060: 79cb 313e 1683 393e 6735 d9bc 59af 86bd
00000070: 22d1 c9bd fb22 b2bd f01c 8b3e ae7d 4fbe
00000080: ba09 86be 340c e03d 31ee c13d 4ac8 7ebc
00000090: 82b2 27be 876d 64be 4ed5 61bb ef3d f9bb
000000a0: 64f5 fabb 63fa b4bd 7c65 0a3e 89b5 303e
000000b0: 3a59 673d 4100 4e3d 07ad 0ebe 164a 6fbe
000000c0: 07f1 1f3d b017 02bd 74e9 d4bd 477c 1b3d
000000d0: 308e 6cbd 5ee1 17be a49c 14be 79ef b7bd
000000e0: 134e b3bd 6b08 91bd 29cc 8e3d 2632 c83d
000000f0: 9a60 563c b426 463d 126d 99bd e6b2 82be
00000100: 0270 0bbd c161 26be 7445 67be e49c 8dbe
00000110: b905 44be bae8 03bf 1bbf e3be fe49 2ebe
00000120: 22a3 80be 89f3 fabd bd0e a9bd 3dd1 7cbe
00000130: b185 52be 781d 32be a148 853d 58c6 903c
00000140: 5e1b 0a3e 3a83 c2bd cc75 3bbe 9ea1 c5bd
00000150: 9e90 6c3c bcde ac3c a874 10bd 9d37 bbbe
00000160: 249c 47be f6c6 9e3d 0d74 53be 9f1e e83d
00000170: 0e52 b43d 697e bfbd b7d2 5e3c 79ca 623e
00000180: 5188 4e3d 1f5e ae3b c315 a2bd 2bd9 ebbc
00000190: b886 20bd 198d 02bd 5829 463e 1faf 523e
000001a0: ccfe b33d 70c6 193e 8598 c63c 82f9 c83d
000001b0: 00a7 293e ad99 993e 8994 2e3e 70be a4bd
000001c0: c071 413e 01e0 323e 833b 46be 7e91 f2bd
000001d0: bb51 7abd 04a7 85be 48ff 32be a7b9 4abe
000001e0: f811 6fbe cde1 8bbe d5a1 82be 5365 94bd
000001f0: 4f87 00bd 50de 1cbe d4bd a2bd 50bb e53c
00000200: 5871 27bd 72f2 86be 3bfb 51be 3ede 0abe
00000210: 0025 7cbe b046 17be d65e 41be b0d7 acbe
00000220: 530e 4ebe 8164 f7bd a607 dbbd 14aa bbbd
00000230: bbcf 08be 8a8d babd 7f5d 023e db72 ed3d
00000240: 8d0c efbd 7e11 4fbe f6fe 39bd ee82 a0be
00000250: 61b3 71be 50a1 03bd b0f5 43be c350 72bd
00000260: c4ba 4cbd fed3 c93d d6dc b83c 991c 81bd
00000270: a359 8a3d ac21 653d 37f9 0a3e 3cba c3bd
00000280: f3e9 b5bd 86ba c9bd c22d bbbd bf62 c93d
00000290: 9ab2 183d 9126 d4bd 8aee 873d 7a7c a63e
000002a0: 292f 09bd e041 a73d e245 aa3e b540 22be
000002b0: 431e 4ebe 1272 81be 49fb 363d e62e 10bc
000002c0: 0574 583c 12c1 013e d503 e13c 8284 a6bd
000002d0: e8d9 903d 8259 f43d 6f52 c73c d6d9 0a3e
000002e0: cc87 343d 9843 703e 87a4 513e 56cb cc3d
000002f0: 47ae 5c3e 6690 b039 6e78 0f3d ca55 1b3e
00000300: f185 80bd 26f1 653d e31a 3b3e bdb7 73be
00000310: 8124 d93c e8c9 bc3d d123 3d3e f03c 203e
00000320: 7ec6 343e b5bd c33d fa4e 253e c8d2 c43e
00000330: 1f88 20bc 4ce4 2b3e a542 1d3e c2d5 b43e
00000340: d7ea df3e c472 043e 7328 a13e ea20 01bd
00000350: bf1f e7bd 8027 fc3d e57e 1ebe a385 5ebe
00000360: a036 d9bd 34d7 0cbe cdd9 0cbe a3f3 7c3e
00000370: 48a3 913e 3340 f1bd 1dd2 863e 9dd9 d33d
00000380: 22c3 93bd 058e 1cbe af76 68be 72d1 96bd
00000390: 150a 48be 155d cabd 6961 99bc 13cf 433e
000003a0: ac4f 633e e4e7 1c3d 95da e7bd 6939 38be
000003b0: 26ba 0bbe 3d53 3abe 1181 0dbe f99e 42be
000003c0: a13c 903d a5df 2e3d 6c1f 55be cd53 68be
000003d0: b32e 1ebe 959f 50bc 365f 683c fbd2 c83b
000003e0: 1c70 9ebd 789e 013d 8388 f8bd 19cb e8bc
000003f0: d799 9d3e 6bc2 913e b635 f93d 407d c03d

feature_extractor.bn_2.weight f4 [8]
0.18174061 0.45804217 0.45912486 0.62365633 0.80147415 0.6894563 0.90695876 0.96607757
00000000: 361a 3a3e 8184 ea3e 6a12 eb3e f1a7 1f3f
00000010: 692d 4d3f 3580 303f 732e 683f dc50 773f

feature_extractor.bn_2.bias f4 [8]
-0.009614833 0.09325818 0.056842733 0.06483404 0.28229493 0.54046255 0.12039094 0.2814419
00000000: 8887 1dbc 25fe be3d edd3 683d b6c7 843d
00000010: f688 903e c15b 0a3f 868f f63d 2719 903e

feature_extractor.bn_2.running_mean f4 [8]
-0.6765745 -0.59500676 -0.15295446 -0.26138103 -0.029924914 -1.0239848 0.9214237 -0.30505964
00000000: fd33 2dbf 5d52 18bf 18a0 1cbe bcd3 85be
00000010: 1825 f5bc ef11 83bf 6ce2 6b3f c730 9cbe

feature_extractor.bn_2.running_var f4 [8]
0.2762987 0.3069615 0.26590887 0.119758114 0.27994713 0.2643241 0.28070846 0.2859567
00000000: 0677 8d3e 0f2a 9d3e 3525 883e be43 f53d
00000010: 3b55 8f3e 7d55 873e 05b9 8f3e eb68 923e

feature_extractor.block_1.skip.weight f4 [16, 8, 1, 1]
0.32119003 0.026911525 -0.36334673 0.016681274 0.24085818 -0.1593849 0.42093843 -0.2943784
-0.06908698 -0.43901557 0.13162455 -0.09722233 -0.081319906 -0.47556198 -0.36766455 0.048825663
0.11741382 -0.30971846 -0.48651668 0.19769034 0.441245 -0.13095284 0.20460333 -0.29355836
0.24380134 -0.16854167 -0.0185576 -0.28062266 0.03841726 -0.4754984 0.20985577 -0.018733775
-0.55437094 -0.35943192 -0.11874698 0.06772088 -0.18298091 0.43773958 0.2529607 -0.14568713
-0.15557554 0.004117972 0.11612902 -0.33067396 -0.15199177 0.26223645 -0.22058433 0.123009704
0.061174806 0.41347817 -0.18884751 0.347119 0.40605822 0.021954935 0.21467435 -0.094876096
0.4321057 0.01347015 0.38657942 -0.12904392 -0.3452407 -0.021473685 0.20248291 0.13669431
-0.1662584 -0.08092106 -0.13451844 -0.0065882555 0.44473362 -0.1647678 0.016060783 0.3422419
0.40281308 -0.04251433 0.26624945 -0.23517628 0.27280945 -0.33320454 0.37857336 0.36293763
-0.05943526 -0.12388488 0.40583503 -0.2981246 -0.12796313 -0.2011564 -0.029639784 -0.027995884
-0.11105625 0.48669258 0.15563045 -0.34535947 0.093881525 -0.2717797 -0.04261741 -0.00807101
0.14661407 -0.10052183 -0.358111 0.26481846 0.12572986 -0.20203182 -0.36481598 0.45003232
-0.09013432 0.028944338 0.6330529 0.18216664 -0.072602704 -0.5250848 0.126218 0.11862287
0.106587455 0.21480106 0.27927834 0.27493623 0.3904446 0.18212847 -0.1830467 0.16504833
-0.1670652 -0.24484254 0.28723982 0.10641024 0.06939789 0.2930048 -0.11545468 -0.35745037
00000000: 0573 a43e 8f75 dc3c 9508 babe 2ba7 883c
00000010: 87a3 763e cc35 23be 3e85 d73e c4b8 96be
00000020: 797d 8dbd a6c6 e0be 96c8 063e 801c c7bd
00000030: 0d8b a6bd dc7c f3be 873e bcbe 6bfd 473d
00000040: a876 f03d 6b93 9ebe b718 f9be 566f 4a3e
00000050: ddea e13e 8018 06be 8983 513e 484d 96be
00000060: 0fa7 793e 3096 2cbe 1c06 98bc c6ad 8fbe
00000070: 6b5b 1d3d 8774 f3be 6ee4 563e 9377 99bc
00000080: 41eb 0dbf 7607 b8be 9e31 f3bd 3fb1 8a3d
00000090: 595f 3bbe 671f e03e 1184 813e 022f 15be
000000a0: 324f 1fbe 0ef0 863b 0dd5 ed3d 194e a9be
000000b0: bba3 1bbe db43 863e dce0 61be 83ec fb3d
000000c0: 6f92 7a3d 69b3 d33e 3e61 41be 95b9 b13e
000000d0: dde6 cf3e d6da b33c 98d3 5b3e 664e c2bd
000000e0: f53c dd3e e7b1 5c3c bded c53e 1724 04be
000000f0: 64c3 b0be 95e9 afbc ae57 4f3e 98f9 0b3e
00000100: a43f 2abe f1b9 a5bd 34bf 09be 4be2 d7bb
00000110: 20b4 e33e e4b8 28be e791 833c 553a af3e
00000120: 843d ce3e 8223 2ebd d951 883e 0dd2 70be
00000130: aead 8b3e c999 aabe 5ed4 c13e f6d2 b93e
00000140: 6372 73bd 5bb7 fdbd 9cc9 cf3e caa3 98be
00000150: c408 03be f1fb 4dbe 22cf f2bc a057 e5bc
00000160: 7671 e3bd c52f f93e 975d 1f3e f5d2 b0be
00000170: f544 c03d b526 8bbe 988f 2ebd 453c 04bc
00000180: 0022 163e 64de cdbd 535a b7be 4996 873e
00000190: 54bf 003e 6ee1 4ebe 29c9 babe a36a e63e
000001a0: 5898 b8bd ad1c ed3c c10f 223f e489 3a3e
000001b0: bab0 94bd f56b 06bf 4b3f 013e 8cf0 f23d
000001c0: 864a da3d cff4 5b3e 92fd 8e3e 71c4 8c3e
000001d0: 5be8 c73e e37f 3a3e 9870 3bbe 6e02 293e
000001e0: 2413 2bbe 01b8 7abe 1911 933e 9ded d93d
000001f0: 7b20 8e3d ba04 963e 8173 ecbd bc03 b7be

feature_extractor.block_1.skipbn.weight f4 [16]
0.5510219 0.8342968 0.60545456 0.5379884 0.5372587 0.6107898 0.2379941 0.600779
0.48554254 0.66880304 0.42771205 0.46425265 0.8920374 0.32403955 0.36794916 0.6364554
00000000: c50f 0d3f 7a94 553f 12ff 1a3f 9cb9 093f
00000010: c989 093f b85c 1c3f bab4 733e a7cc 193f
00000020: 0899 f83e ad36 2b3f 13fd da3e 86b2 ed3e
00000030: 905c 643f 83e8 a53e d563 bc3e beee 223f

feature_extractor.block_1.skipbn.bias f4 [16]
-0.1202838 0.21945177 0.057329036 0.16524331 -0.05929674 0.19000766 -0.081855856 0.1954905
0.002069876 0.22688986 -0.021097038 0.1814255 0.24859738 -0.011117667 -0.016747257 -0.13624698
00000000: 5a57 f6bd f7b7 603e dad1 6a3d 8b35 293e
00000010: 23e1 72bd 5e91 423e 0ba4 a7bd a92e 483e
00000020: c2a6 073b d155 683e b2d3 acbc 9bc7 393e
00000030: 5090 7e3e e026 36bc 8b31 89bc 5484 0bbe

feature_extractor.block_1.skipbn.running_mean f4 [16]
-0.012867764 -0.5728506 -0.051444925 -0.3245869 0.10248604 -0.007077369 0.398369 0.039709847
0.22025166 0.24109654 -0.2538306 -0.11429153 0.0032593422 -0.09389044 0.49829137 0.017510077
00000000: 50d3 52bc 56a6 12bf eab7 52bd 4130 a6be
00000010: 33e4 d13d 46e9 e7bb 06f7 cb3e cba6 223d
00000020: a789 613e 03e2 763e 16f6 81be ad11 eabd
00000030: b09a 553b a249 c0bd 0c20 ff3e 4b71 8f3c

feature_extractor.block_1.skipbn.running_var f4 [16]
0.15290844 0.059690356 0.13248968 0.12276022 0.07066678 0.06781132 0.084322 0.12561105
0.14766738 0.2542946 0.06155629 0.059394196 0.24090643 0.1559238 0.107635744 0.07243473
00000000: 0894 1c3e e07d 743d 60ab 073e b669 fb3d
00000010: bfb9 903d a9e0 8a3d 03b1 ac3d 2fa0 003e
00000020: 1e36 173e e732 823e 7322 7c3d 5447 733d
00000030: 2db0 763e 7daa 1f3e 2170 dc3d a958 943d

feature_extractor.block_1.rep.1.conv1.weight f4 [8, 1, 3, 3]
0.27247497 0.0048350776 0.06690532 -0.11331895 0.3193922 -0.326343 0.33587483 0.28678706
0.18736547 -0.25181776 -0.28876063 -0.39076996 -0.017970156 0.17094113 -0.20302552 -0.036527447
0.23168464 0.121014096 -0.028576968 0.08108357 -0.025382593 0.12709676 0.15987302 -0.03757256
-0.12114073 -0.44906354 -0.41056928 -0.15824127 -0.093988664 0.11135508 -0.017811917 0.5514895
0.34653187 0.2581028 -0.19470128 -0.050894953 0.18896364 0.14430311 -0.13444987 0.2575219
0.5235392 0.11332875 -0.26434195 -0.048979152 -0.13135171 -0.19161262 0.08094241 0.22520742
0.11294766 0.23041217 0.30454966 -0.010572033 -0.00738801 -0.26699144 0.08602921 0.25792268
0.112417124 0.2932204 -0.3422685 -0.1393327 -0.031582426 0.051141687 -0.11871196 0.28129655
-0.097956374 -0.13221855 0.47035986 -0.23688371 -0.5550032 0.3812459 -0.31634015 -0.04501057
00000000: d781 8b3e 926f 9e3b a805 893d c413 e8bd
00000010: 6087 a33e 6e16 a7be c9f7 ab3e c1d5 923e
00000020: bcdc 3f3e 42ee 80be 6fd8 93be 0013 c8be
00000030: 2636 93bc 310b 2f3e ece5 4fbe ce9d 15bd
00000040: bd3e 6d3e 3dd6 f73d 3f1a eabc 250f a63d
00000050: 28ef cfbc a725 023e c1b5 233e afe5 19bd
00000060: a218 f8bd a8eb e5be 2336 d2be 000a 22be
00000070: 217d c0bd 220e e43d 4cea 91bc 6a2e 0d3f
00000080: a06c b13e 0d26 843e c65f 47be 3a77 50bd
00000090: af7f 413e 32c4 133e 3aad 09be e9d9 833e
000000a0: aa06 063f e718 e83d d457 87be 5d9e 48bd
000000b0: 1081 06be 1936 44be 22c5 a53d c69c 663e
000000c0: 1a51 e73d 2bf1 6b3e efed 9b3e 5236 2dbc
000000d0: 1f17 f2bb 1ab3 88be 1530 b03d 710e 843e
000000e0: f33a e63d fc20 963e d13d afbe 3bad 0ebe
000000f0: 935c 01bd f279 513d 421f f3bd 1a06 903e
00000100: 5a9d c8bd 4d64 07be 02d3 f03e a591 72be
00000110: b114 0ebf aa32 c33e 56f7 a1be 015d 38bd

feature_extractor.block_1.rep.1.pointwise.weight f4 [16, 8, 1, 1]
-0.43283904 -0.09797835 -0.07923996 0.2046884 -0.06810755 -0.21932162 -0.023035692 0.6578939
0.26827788 -0.1854913 0.3782908 0.067782626 1.8152328e-05 0.269653 0.18788338 -0.40073398
-0.039223894 0.08337634 0.12316842 0.11132062 0.12030902 -0.13514204 -0.13741396 -0.51604784
-0.17365319 -0.14969222 -0.24887463 0.17077118 0.10059545 0.54844546 0.080172494 0.31056455
0.20771225 -0.23600169 0.0742475 0.23664403 -0.32149217 -0.3688061 -0.09985844 -0.17916885
0.39273426 0.42498004 -0.0006440917 0.009035358 -0.04308865 0.14010067 -0.060164247 0.5379708
-0.27421045 -0.37185895 0.05376556 0.18786938 0.21801257 -0.14249031 0.054790433 0.020878553
0.0845851 0.29547682 0.019546736 -0.080572024 -0.47827214 -0.21395054 -0.30108735 0.21663018
0.16228063 0.11423412 -0.17715698 -0.1288171 -0.04125158 -0.27489945 -0.40547517 0.08069881
0.3314649 0.023993386 -0.2863663 -0.2031781 0.50804466 0.12360027 0.08801288 -0.13675861
0.22830193 -0.025389422 0.1628166 0.2791827 0.13045354 -0.03772287 -0.040093042 -0.49908793
0.21822065 -0.16809066 -0.3786858 0.50847006 0.005333228 0.1738914 -0.123014726 -0.08006027
-0.22005635 -0.22512698 0.3533866 0.2873218 0.10641752 -0.35089162 0.18520626 0.014402086
-0.31641158 0.22119407 -0.2587996 0.53761303 0.11056229 0.005627078 0.06949372 -0.049027372
0.06453385 0.25334612 -0.09784634 -0.22694145 0.29751387 -0.64473087 -0.30728137 -0.023101073
0.23988307 -0.18524526 0.34912983 0.3062556 -0.40003884 -0.062308013 0.023848485 0.10268836
00000000: 149d ddbe e0a8 c8bd 8f48 a2bd d699 513e
00000010: f97b 8bbd d995 60be 59b5 bcbc bc6b 283f
00000020: b85b 893e 6ef1 3dbe 55af c13e 9ed1 8a3d
00000030: d445 9837 f50f 8a3e 8064 403e 012d cdbe
00000040: 3ca9 20bd 37c1 aa3d b93f fc3d 11fc e33d
00000050: 9364 f63d ad62 0abe 3fb6 0cbe b61b 04bf
00000060: 24d2 31be eb48 19be fed8 7ebe a4de 2e3e
00000070: fd04 ce3d ec66 0c3f 7a31 a43d 5102 9f3e
00000080: 85b2 543e 6daa 71be 130f 983d d052 723e
00000090: 9f9a a4be 27d4 bcbe 9582 ccbd 0a78 37be
000000a0: 7714 c93e fc96 d93e 43d8 28ba 0a09 143c
000000b0: b97d 30bd 8d76 0f3e c96e 76bd 74b8 093f
000000c0: 5065 8cbe 4c64 bebe 4739 5c3d d560 403e
000000d0: b03e 5f3e fbe8 11be ef6b 603d 8009 ab3c
000000e0: f43a ad3d bd48 973e 7a20 a03c f202 a5bd
000000f0: 16e0 f4be da15 5bbe 1f28 9abe 4dd4 5d3e
00000100: e52c 263e 94f3 e93d a468 35be a1e8 03be
00000110: 6bf7 28bd 9fbf 8cbe 719a cfbe 6b45 a53d
00000120: c4b5 a93e c78d c43c 9b9e 92be eb0d 50be
00000130: 370f 023f 2322 fd3d 1940 b43d 730a 0cbe
00000140: fbc7 693e 7afd cfbc 65b9 263e 09f1 8e3e
00000150: 9d95 053e 4c83 1abd 9a38 24bd 7488 ffbe
00000160: 3c75 5f3e f51f 2cbe 1be3 c1be 182b 023f
00000170: 5cc2 ae3b 9610 323e 25ef fbbd a4f6 a3bd
00000180: 7456 61be b087 66be 17ef b43e d81b 933e
00000190: 6ef1 d93d 11a8 b3be b6a6 3d3e baf6 6b3c
000001a0: b300 a2be b380 623e 6281 84be 02a1 093f
000001b0: 7b6e e23d 5a63 b83b b952 8e3d edd0 48bd
000001c0: 532a 843d 95b6 813e a963 c8bd 5763 68be
000001d0: bd53 983e 150d 25bf fc53 9dbe 763e bdbc
000001e0: e8a3 753e efb0 3dbe 25c1 b23e 89cd 9c3e
000001f0: e4d1 ccbe b036 7fbd e65d c33c 464e d23d

feature_extractor.block_1.rep.2.weight f4 [16]
0.37111545 0.7195589 0.13950042 0.5966842 0.34337527 0.4882118 0.2267258 0.715096
0.36832267 0.28118724 0.64973235 0.79663604 0.35094365 0.36719579 0.17152524 0.8278528
00000000: d802 be3e 0335 383f 33d9 0e3e 4cc0 183f
00000010: e2ce af3e e6f6 f93e cf2a 683e 8810 373f
00000020: ca94 bc3e c6f7 8f3e dc54 263f 57f0 4b3f
00000030: e3ae b33e 1601 bc3e 50a4 2f3e 29ee 533f

feature_extractor.block_1.rep.2.bias f4 [16]
-0.007821895 -0.003651453 0.058905385 0.031260587 0.18835898 0.12513262 -0.090210274 0.4751017
0.43151522 0.37142852 0.35981297 -0.09543247 0.080151774 0.17045085 0.27179846 0.48824975
00000000: 6827 00bc 374d 6fbb c646 713d 1a0b 003d
00000010: 2de1 403e c422 003e 2ac0 b8bd 8840 f33e
00000020: 90ef dc3e e12b be3e 6839 b83e 1972 c3bd
00000030: 9d26 a43d ab8a 2e3e 2b29 8b3e dffb f93e

feature_extractor.block_1.rep.2.running_mean f4 [16]
-0.14733437 0.16475223 0.051232237 0.24041311 -0.10191029 -0.09094037 0.09093271 -0.31793374
-0.1445613 0.22608306 0.15287352 0.25307685 -0.035456005 0.13670029 -0.19921698 -0.08983643
00000000: d2de 16be cfb4 283e e5d8 513d db2e 763e
00000010: 58b6 d0bd f23e babd ee3a ba3d 36c8 a2be
00000020: e107 14be 5182 673e e08a 1c3e 4a93 813e
00000030: 513a 11bd 29fb 0b3e 89ff 4bbe 2afc b7bd

feature_extractor.block_1.rep.2.running_var f4 [16]
0.17438537 0.09130846 0.11507471 0.050025526 0.03816191 0.1212669 0.01986909 0.091457
0.024905045 0.0637302 0.12111918 0.018949302 0.035018854 0.024199273 0.033973526 0.044326883
00000000: 1492 323e eeff ba3d 4aac eb3d 91e7 4c3d
00000010: aa4f 1c3d c85a f83d 80c4 a23c cf4d bb3d
00000020: aa05 cc3c fb84 823d 550d f83d 913b 9b3c
00000030: ee6f 0f3d 8e3d c63c d327 0b3d 1b90 353d

feature_extractor.block_1.rep.4.conv1.weight f4 [16, 1, 3, 3]
0.050798107 0.12930591 0.4352836 -0.03413363 0.50891876 0.3777724 -0.10890067 0.27339822
-0.034062706 -0.22433613 -0.07063743 0.15224452 0.26531908 0.06229077 0.0030712495 0.18862897
0.42576936 0.19286878 -0.0069219503 0.11729138 0.32719278 -0.17632376 0.35813254 0.20963475
0.24509886 0.049687672 -0.05524935 -0.5345555 0.21030793 -0.23753491 0.26862827 -0.104200505
-0.04494427 0.23111455 0.16490218 -0.010190912 0.051406883 0.034892257 0.17782341 0.18909872
0.4885213 0.32791463 -0.29806003 -0.030609325 -0.033838123 0.17098293 -0.2484999 -0.0013711326
0.2904114 0.12159915 0.069474146 0.0092937015 0.27165383 0.45422018 -0.1937619 -0.074806005
0.39803013 -0.11572356 0.07969597 0.35274398 0.3101571 0.29064086 0.30818865 0.14355743
0.17002055 0.057988152 -0.14270209 0.039494332 0.4355027 -0.27831736 -0.13012502 -0.046423547
0.40304187 0.0011630094 -0.21823214 -0.19825241 0.041861247 -0.22946787 -0.3716706 0.24995838
0.19349247 0.28664613 -0.14539328 0.16241637 -0.34102517 -0.51202464 -0.21663831 0.460219
0.3286916 0.060396247 -0.41938654 -0.19311361 0.030991254 -0.31199977 -0.19584675 0.057452697
0.105474904 0.24544404 -0.13765354 0.050001968 0.06004757 -0.15231673 -0.12004239 -0.24878684
-0.07022393 -0.16459128 0.29223767 0.4085987 -0.24785739 -0.22942606 -0.29015663 -0.16678756
-0.08134703 0.21871231 -0.20589447 -0.19810903 0.3221013 -0.2178331 0.13714807 0.28526804
-0.15498193 0.027697159 -0.044090126 -0.24182135 -0.23015049 -0.3422499 0.4735771 -0.20396604
-0.18649156 0.09418111 -0.4304434 -0.0645521 0.256412 -0.0069391713 -0.13695918 -0.2922265
-0.49598435 -0.16754197 -0.22278365 -0.08382176 0.29761496 -0.087845765 0.4279738 0.09390971
00000000: ad11 503d c568 043e 7edd de3e b5cf 0bbd
00000010: 8048 023f 626b c13e 5107 dfbd dafa 8b3e
00000020: 5685 0bbd 5fb8 65be 5baa 90bd fde5 1b3e
00000030: e7d7 873e 9b24 7f3d 0447 493b f427 413e
00000040: 71fe d93e 657f 453e 87d1 e2bb 7736 f03d
00000050: d085 a73e 378e 34be 265d b73e 7eaa 563e
00000060: 32fb 7a3e 4d85 4b3d 244d 62bd a1d8 08bf
00000070: f65a 573e 5a3c 73be a589 893e 1367 d5bd
00000080: 7c17 38bd 4ba9 6c3e 1edc 283e c8f7 26bc
00000090: 0690 523d 2feb 0e3d 5717 363e 18a3 413e
000000a0: 771f fa3e 6de4 a73e 539b 98be 68c0 fabc
000000b0: d899 0abd 2616 2f3e c276 7ebe 93b7 b3ba
000000c0: ceb0 943e fa08 f93d 7648 8e3d 9c44 183c
000000d0: 3616 8b3e 8c8f e83e 8569 46be e433 99bd
000000e0: 9bca cb3e 7900 edbd a437 a33d dc9a b43e
000000f0: e9cc 9e3e e1ce 943e e7ca 9d3e b800 133e
00000100: de19 2e3e fc84 6d3d 7f20 12be cfc4 213d
00000110: 36fa de3e 9d7f 8ebe 7e3f 05be 9e26 3ebd
00000120: 815b ce3e 1f70 983a 3f78 5fbe ae02 4bbe
00000130: b376 2b3d a0f9 6abe 9c4b bebe 17f5 7f3e
00000140: e422 463e 48c3 923e fae1 14be 7a50 263e
00000150: da9a aebe 0c14 03bf 6fd6 5dbe d3a1 eb3e
00000160: 444a a83e 0e62 773d d5b9 d6be 93bf 45be
00000170: 5fe1 fd3c 6fbe 9fbe 0d8c 48be 8553 6b3d
00000180: 3a03 d83d af55 7b3e 0df5 0cbe ddce 4c3d
00000190: 71f4 753d ebf8 1bbe c9d8 f5bd fac1 7ebe
000001a0: 90d1 8fbd 9e8a 28be 2da0 953e d933 d13e
000001b0: 54ce 7dbe aaee 6abe 698f 94be 5cca 2abe
000001c0: 4699 a6bd 1ff6 5f3e 00d6 52be 18dd 4abe
000001d0: 76ea a43e a40f 5fbe 8b70 0c3e a70e 923e
000001e0: 95b3 1ebe 27e5 e23c d997 34bd 04a0 77be
000001f0: 92ac 6bbe 613b afbe b378 f23e 79dc 50be
00000200: a5f7 3ebe 07e2 c03d 1463 dcbe e433 84bd
00000210: 6f48 833e fd61 e3bb 073f 0cbe b69e 95be
00000220: a9f1 fdbe 1f90 2bbe 6621 64be beaa abbd
00000230: fd60 983e 7be8 b3bd 621f db3e bc53 c03d

feature_extractor.block_1.rep.4.pointwise.weight f4 [16, 16, 1, 1]
-0.13499957 -0.022884289 0.415605 -0.07907926 0.00025178186 -0.24977885 -0.035230182 -0.44975442
-0.2502903 -0.0712216 -0.31766033 0.19020025 -0.102105655 -0.37452945 -0.08505722 -0.0542995
-0.08299669 -0.15922962 -0.08818611 -0.14962412 -0.03607472 0.00407022 -0.41397738 -0.034148984
-0.012120691 -0.07385153 0.21071845 0.17520517 0.22321583 -0.16743925 0.16199736 0.47435606
-0.1416408 0.114212535 0.10938593 0.08849418 0.19844146 0.0503075 0.12045923 -0.31498373
-0.050401848 0.100596204 0.09695554 -0.0881485 -0.20221962 -0.023678798 0.04892373 -0.47821772
0.053549435 -0.0084796725 -0.22416584 -0.1747069 -0.034365512 0.23219341 -0.20930733 0.37157604
-0.27112386 -0.14485787 0.37248322 -0.10946227 -0.2599673 -0.1404569 -0.063074216 0.12603436
-0.024913508 -0.13515091 0.28571627 -0.008023823 -0.14348707 0.004759819 0.013120877 -0.027224118
-0.36351615 0.14653653 0.002614427 -0.77534276 -0.32819483 0.22465415 -0.20508593 -0.031206537
0.35638687 -0.16732222 -0.20809476 0.09233971 0.34162527 -0.13693774 -0.11115867 -0.002390333
-0.24660526 -0.044160627 0.0036969825 0.01919334 0.033680934 0.05556892 -0.19197974 0.327459
-0.19028395 0.38507214 0.2577954 -0.35092786 -0.14195053 0.25831473 -0.14169905 -0.03259553
0.17171267 -0.1301683 0.17155199 -0.03034364 -0.04736157 0.038301416 0.29100242 -0.12991977
0.35565954 0.07026848 -0.021609664 0.103662096 -0.24548657 0.0048175994 -0.34774962 0.26533717
-0.061024185 0.18902686 -0.2979608 -0.044960037 0.30323976 -0.052342918 -0.12810998 0.04026072
0.28977215 0.23655425 0.1820447 -0.016235476 -0.2521843 -0.0916343 0.22459307 -0.060958397
-0.11739112 -0.16181546 -0.27247408 -0.20179279 -0.27385184 -0.18985197 -0.33498865 0.14167257
-0.07663845 -0.01851642 -0.14392585 -0.23776324 -0.053066272 -0.13261484 0.3624027 -0.08173316
-0.061880954 -0.16772607 0.25119397 0.36165166 0.27134183 -0.13628057 0.16673414 0.32308996
-0.057031706 -0.13892415 0.28680575 0.11574514 0.08086826 0.40241966 0.1890624 -0.23624898
0.32916704 -0.1322669 0.11440535 -0.081017524 0.1816815 0.33056232 -0.18387893 0.052701566
0.11505327 -0.15835401 -0.094974674 0.3971543 -0.4078119 -0.049621876 -0.005979995 -0.20709145
-0.043902498 -0.554006 -0.25246164 0.102980874 -0.13155733 0.0867988 -0.13885081 -0.23824811
0.035956644 0.098448545 0.15122083 0.13457696 0.20087568 -0.30707029 0.33841857 -0.36188203
0.06845337 0.05261551 -0.3459794 -0.04031681 0.088354595 0.19144185 -0.43804812 0.064040385
-0.18388964 -0.17541075 -0.23754874 -0.36073387 0.21521173 -0.064106464 0.17671143 0.11567754
-0.25836113 0.041663833 0.15285636 -0.15905719 0.058733743 0.33165175 -0.38604203 0.15042865
-0.1977171 -0.17539655 0.051479135 -0.11357331 0.2635261 -0.25549823 -0.25368565 0.38074744
-0.1675899 0.38541353 0.02824899 -0.1214712 0.17256853 -0.26760074 0.050868805 -0.09430292
-0.314365 -0.10260298 -0.35934123 -0.1945539 -0.3027116 -0.1361316 -0.005810812 -0.052552946
-0.016320854 -0.2994084 0.13791466 0.063947506 -0.13770044 0.18913016 0.030589435 0.28152648
00000000: 543d 0abe d577 bbbc 2eca d43e 4ff4 a1bd
00000010: 9701 8439 07c6 7fbe 864d 10bd 3646 e6be
00000020: 0d26 80be a1dc 91bd 60a4 a2be dbc3 423e
00000030: c51c d1bd 53c2 bfbe 7b32 aebd 2769 5ebd
00000040: 2bfa a9bd 170d 23be eb9a b4bd 1137 19be
00000050: 16c3 13bd 7b5f 853b d8f4 d3be cedf 0bbd
00000060: dd95 46bc 793f 97bd 94c6 573e fc68 333e
00000070: b192 643e 3275 2bbe a3e2 253e ccde f23e
00000080: 490a 11be 43e8 e93d bb05 e03d 703c b53d
00000090: 3d34 4b3e 3d0f 4e3d 54b3 f63d 8c45 a1be
000000a0: 2b72 4ebd 6205 ce3d a090 c63d 3387 b4bd
000000b0: a912 4fbe 0afa c1bc 4064 483d f4d8 f4be
000000c0: a756 5b3d 53ee 0abc bb8b 65be 5ee6 32be
000000d0: dac2 0cbd 1cc4 6d3e a954 56be 373f be3e
000000e0: bfd0 8abe 9f55 14be 1fb6 be3e c12d e0bd
000000f0: 6f1a 85be efd3 0fbe 0e2d 81bd 270f 013e
00000100: 6a17 ccbc 0065 0abe 6749 923e 5a76 03bc
00000110: 46ee 12be 41f8 9b3b f2f8 563c 1d05 dfbc
00000120: ca1e babe ac0d 163e ce56 2b3b dd7c 46bf
00000130: 2709 a8be bd0b 663e 0c02 52be daa4 ffbc
00000140: 5778 b63e 8456 2bbe cb16 55be 9a1c bd3d
00000150: 82e9 ae3e 6839 0cbe 28a7 e3bd 22a7 1cbb
00000160: 1786 7cbe c6e1 34bd 1349 723b 5a3b 9d3c
00000170: 05f5 093d 3c9c 633d 5696 44be b5a8 a73e
00000180: ccd9 42be 2d28 c53e c2fd 833e d1ac b3be
00000190: 7b5b 11be d441 843e 8e19 11be e482 05bd
000001a0: 72d5 2f3e d74a 05be 53ab 2f3e 3a93 f8bc
000001b0: 35fe 41bd f2e1 1c3d 45fe 943e b009 05be
000001c0: 0219 b63e ece8 8f3d c006 b1bc cb4c d43d
000001d0: d560 7bbe f4dc 9d3b 3d0c b2be 46da 873e
000001e0: 7ff4 79bd 4290 413e 518e 98be 0428 38bd
000001f0: 3e42 9b3e 8765 56bd 432f 03be 6de8 243d
00000200: 045d 943e 473b 723e ed69 3a3e 4300 85bc
00000210: 4d1e 81be c4aa bbbd bafb 653e 83af 79bd
00000220: c16a f0bd f4b2 25be b981 8bbe c5a2 4ebe
00000230: 4f36 8cbe 8e68 42be a283 abbe 9d12 113e
00000240: 9ff4 9cbd bfaf 97bc 4c61 13be 3578 73be
00000250: 055c 59bd 2fcc 07be d98c b93e b763 a7bd
00000260: e276 7dbd 62c0 2bbe 7f9c 803e 682a b93e
00000270: 51ed 8a3e 228d 0bbe 5bbc 2a3e 0c6c a53e
00000280: 149a 69bd 2242 0ebe 34d8 923e ca0b ed3d
00000290: 429e a53d f309 ce3e 9399 413e 41eb 71be
000002a0: 9588 a83e f970 07be 5a4d ea3d 84ec a5bd
000002b0: b70a 3a3e 773f a93e c24a 3cbe 99dd 573d
000002c0: 0ca1 eb3d 8e27 22be 1582 c2bd cf57 cb3e
000002d0: b9cc d0be 4f40 4bbd d5f3 c3bb c80f 54be
000002e0: 1bd3 33bd 56d3 0dbf a742 81be a3e7 d23d
000002f0: f7b6 06be 92c3 b13d e82e 0ebe 50f7 73be
00000300: 4647 133d 649f c93d a2d9 1a3e 8bce 093e
00000310: 5bb2 4d3e 5138 9dbe 3345 ad3e 9a48 b9be
00000320: 4831 8c3d 5c83 573d 3624 b1be 3d23 25bd
00000330: 41f3 b43d 5509 443e d847 e0be 9b27 833d
00000340: 914d 3cbe e09e 33be fa3f 73be 1cb2 b8be
00000350: 7760 5c3e 404a 83bd d7f3 343e 59e8 ec3d
00000360: e947 84be b2a7 2a3d 6186 1c3e e3df 22be
00000370: cb92 703d 42ce a93e 4da7 c5be f809 1a3e
00000380: 5a76 4abe 279b 33be c9db 523d 2099 e8bd
00000390: e5ec 863e aad0 82be 16e3 81be 54f1 c23e
000003a0: b09c 2bbe ec54 c53e 6d6a e73c e4c5 f8bd
000003b0: ceb5 303e f702 89be cf5b 503d e421 c1bd
000003c0: 73f4 a0be 8321 d2bd 93fb b7be 2339 47be
000003d0: 04fd 9abe 1566 0bbe a068 bebb c241 57bd
000003e0: 50b3 85bc 0f4c 99be 8039 0d3e e9f6 823d
000003f0: 5801 0dbe 56ab 413e b296 fa3c 3d24 903e

feature_extractor.block_1.rep.5.weight f4 [16]
0.44430667 0.8305055 0.66524166 0.30429247 0.5113142 0.7786312 0.51560885 0.8127967
0.81585896 0.83592635 0.7653616 0.49788302 0.42487472 0.8762777 0.48985898 0.85798657
00000000: 2a7c e33e 029c 543f 474d 2a3f 39cc 9b3e
00000010: 7de5 023f 6054 473f f1fe 033f 7213 503f
00000020: 22dc 503f 45ff 553f bdee 433f 86ea fe3e
00000030: 2e89 d93e bc53 603f ccce fa3e 02a5 5b3f

feature_extractor.block_1.rep.5.bias f4 [16]
-0.120283775 0.21945173 0.05732921 0.16524358 -0.05929685 0.1900077 -0.08185604 0.1954906
0.0020698023 0.22688955 -0.0210969 0.18142541 0.2485973 -0.0111176055 -0.016747309 -0.13624685
00000000: 5757 f6bd f4b7 603e 09d2 6a3d 9d35 293e
00000010: 41e1 72bd 6191 423e 24a4 a7bd b02e 483e
00000020: 85a5 073b bc55 683e 68d3 acbc 95c7 393e
00000030: 4a90 7e3e 9e26 36bc a731 89bc 4b84 0bbe

feature_extractor.block_1.rep.5.running_mean f4 [16]
0.10574214 -0.34043595 0.1782003 -0.0070533846 -0.004282038 -0.054168206 0.049960386 0.114668936
0.20454408 -0.27943367 -0.070844665 0.010822526 0.05778429 -0.16560885 0.009059444 -0.38358054
00000000: 568f d83d 9f4d aebe 247a 363e 1420 e7bb
00000010: 5750 8cbb 7bdf 5dbd 43a3 4c3d 8cd7 ea3d
00000020: 0174 513e ee11 8fbe 0217 91bd f750 313c
00000030: 38af 6c3d 5e95 29be 106e 143c ab64 c4be

feature_extractor.block_1.rep.5.running_var f4 [16]
0.10946358 0.1390159 0.12411267 0.06121709 0.046067726 0.06314291 0.037694257 0.047779776
0.085348114 0.076213814 0.038668655 0.059248395 0.069855526 0.049539544 0.047723483 0.076265894
00000000: 712e e03d 2f5a 0e3e c92e fe3d c5be 7a3d
00000010: 83b1 3c3d 1251 813d 4b65 1a3d bab4 433d
00000020: feca ae3d fd15 9c3d 0663 1e3d 72ae 723d
00000030: 6a10 8f3d fae9 4a3d b379 433d 4b31 9c3d

feature_extractor.block_2.skip.weight f4 [32, 16, 1, 1]
-0.024752552 0.28806934 0.11240657 -0.017896593 0.24774046 0.27069566 -0.061003283 -0.009003819
0.23108315 -0.14575478 0.54461646 0.048453845 0.2733924 0.2454438 -0.16266917 -0.06030021
0.09916236 -0.08081471 0.23162924 -0.07867928 -0.0143742375 -0.012336986 -0.04380734 -0.049123753
0.19917543 0.27950847 0.30169067 0.38581312 -0.15460046 0.3622017 0.10252548 -0.10691317
0.047925435 -0.11390565 0.023226874 -0.061010793 0.07764965 0.2626044 -0.17408729 -0.28523386
-0.037294447 -0.020525973 0.08768896 0.3589713 0.13864107 0.22900772 0.45055392 0.11892156
0.2896791 -0.30488852 0.12798677 0.089439444 0.14141582 0.1860308 0.39181283 0.23101473
0.09894272 0.21295674 -0.20484209 -0.07478855 0.19533083 -0.040370684 -0.13108976 -0.06846833
-0.047377042 0.23643112 0.13873057 0.30425256 0.05201301 -0.15803333 -0.43348584 0.046358015
-0.28207168 -0.32275948 0.4119129 -0.01603991 0.054508913 -0.11474678 -0.05549709 0.06583253
-0.3729978 0.09014148 -0.24485703 0.0141878165 -0.20432474 0.27254573 0.09591387 -0.116928816
-0.11944968 -0.11038452 -0.10708451 0.0387565 0.36859792 -0.026940526 -0.18862799 -0.04011979
-0.2936239 0.07549761 -0.14169784 -0.443944 0.26224118 -0.11882945 -0.48731768 -0.34227556
0.00047858802 -0.13783768 -0.16478212 0.11933255 -0.06194024 0.083759226 0.22309452 0.04766074
-0.32111087 -0.18226095 -0.029277697 -0.36633074 -0.035060238 0.1550208 -0.32051405 -0.121194325
-0.48947722 0.089207724 -0.0025568916 0.055764962 -0.34532663 -0.07190898 0.18835019 0.16586834
-0.1437078 0.2176424 -0.008526453 0.029726714 0.3942431 0.17096873 -0.12073665 -0.25884178
-0.36306956 0.052471157 0.11092173 0.10072463 -0.24460606 0.21811476 0.0016105204 -0.18893072
0.0030881173 -0.17927039 0.03562313 0.3368439 0.056878246 0.11233923 -0.09166437 0.067293756
0.21362178 -0.00084536424 0.06097038 -0.15625715 -0.2514011 0.11710152 -0.5358516 -0.36559075
-0.04469706 -0.23740752 -0.46734217 -0.1131922 -0.36613965 0.017349092 -0.14884987 -0.1002422
-0.15131599 -0.030185662 0.00015474808 -0.2364515 0.23687464 -0.17681804 -0.18551226 -0.22128133
-0.1825689 0.11772402 0.07342967 -0.1782811 -0.17082606 0.26941204 -0.020193517 0.08213856
-0.30782506 -0.32883427 0.030839883 -0.29411212 -0.14959462 -0.18374854 -0.17164905 -0.08223353
0.10628454 -0.17514935 -0.0010960071 0.31209671 0.12282454 0.13100736 0.0328169 -0.031536423
-0.097669855 0.41514462 -0.08012164 0.13062347 -0.38097674 0.049822703 -0.29275063 -0.08651233
0.15263529 -0.048517976 0.068661995 -0.1003672 0.064595714 0.046912145 0.30782816 -0.0715716
0.44189817 -0.038218122 0.24680182 0.023093674 0.31685823 0.013327837 -0.23728527 -0.1212459
-0.063226886 0.28674582 0.36185297 -0.21423692 0.15406533 0.4479028 0.17307362 0.11299709
0.08224328 -0.03453596 -0.19365358 0.1856147 -0.28748834 0.20928936 0.012223794 0.104611546
0.005869524 -0.09883053 -0.3803202 -0.22672641 0.15484153 -0.07460674 0.08379221 0.2502028
-0.342021 0.058883563 -0.18845658 -0.09561582 -0.39845327 -0.0019135745 -0.22379449 0.088197276
00000000: ddc5 cabc d37d 933e 6a35 e63d e09b 92bc
00000010: adaf 7d3e 9f98 8a3e 94de 79bd c184 13bc
00000020: 10a1 6c3e be40 15be fc6b 0b3f 8a77 463d
00000030: 17fa 8b3e 9f55 7b3e bf92 26be 5afd 76bd
00000040: a315 cb3d 2f82 a5bd 3730 6d3e 9a22 a1bd
00000050: ec81 6bbc 1221 4abc 536f 33bd fd35 49bd
00000060: a5f4 4b3e bc1b 8f3e 3377 9a3e 4c89 c53e
00000070: 954f 1ebe 8072 b93e e1f8 d13d 4bf5 dabd
00000080: 764d 443d 5e47 e9bd 4946 be3c 74e6 79bd
00000090: c806 9f3d 1574 863e f043 32be 2c0a 92be
000000a0: 10c2 18bd 1626 a8bc 4596 b33d 16cb b73e
000000b0: edf7 0d3e 0081 6a3e 01af e63e 268d f33d
000000c0: d250 943e 591a 9cbe f70e 033e 072c b73d
000000d0: 4fcf 103e dc7e 3e3e b19b c83e 208f 6c3e
000000e0: 7ba2 ca3d 5511 5a3e 20c2 51be bd2a 99bd
000000f0: ce04 483e bb5b 25bd 653c 06be 2039 8cbd
00000100: 6e0e 42bd 001b 723e 630f 0e3e fec6 9b3e
00000110: 980b 553d 7dd3 21be dbf1 ddbe e7e1 3d3d
00000120: b36b 90be bb40 a5be 3fe6 d23e 2166 83bc
00000130: bd44 5f3d 5c00 ebbd eb50 63bd 35d3 863d
00000140: 91f9 bebe 199c b83d cdbb 7abe 0474 683c
00000150: 813a 51be 1d8b 8b3e 7e6e c43d 6078 efbd
00000160: 09a2 f4bd 4711 e2bd 204f dbbd 23bf 1e3d
00000170: deb8 bc3e 61b2 dcbc b227 41be a654 24bd
00000180: df55 96be 7e9e 9a3d 3d19 11be a14c e3be
00000190: 7a44 863e db5c f3bd b481 f9be be3e afbe
000001a0: ffea fa39 5225 0dbe a5bc 28be a064 f43d
000001b0: 0db5 7dbd f589 ab3d e472 643e e837 433d
000001c0: a568 a4be 9da2 3abe c8d7 efbc b48f bbbe
000001d0: 539b 0fbd c6bd 1e3e 6b1a a4be bb34 f8bd
000001e0: c29c fabe 8ab2 b63d 8691 27bb cd69 643d
000001f0: a7ce b0be 0445 93bd dfde 403e 64d9 293e
00000200: 2328 13be a6dd 5e3e 89b2 0bbc 7085 f33c
00000210: 3bda c93e 6d12 2f3e c744 f7bd e986 84be
00000220: 41e4 b9be ffeb 563d ef2a e33d b748 ce3d
00000230: 037a 7abe 7a59 5f3e 1918 d33a 0e77 41be
00000240: 0362 4a3b a892 37be 8fe9 113d ce76 ac3e
00000250: 2af9 683d 1c12 e63d 87ba bbbd 4fd1 893d
00000260: abbf 5a3e 6f9b 5dba 14bc 793d e001 20be
00000270: a5b7 80be ecd2 ef3d 922d 09bf b62e bbbe
00000280: 4414 37bd f51a 73be 7947 efbe 50d1 e7bd
00000290: a876 bbbe af1f 8e3c 1a6c 18be c84b cdbd
000002a0: 94f2 1abe ec47 f7bc df43 2239 5820 72be
000002b0: 448f 723e ca0f 35be edf6 3dbe 9397 62be
000002c0: 57f3 3abe 4a19 f13d 4b62 963d 528f 36be
000002d0: 07ed 2ebe 60f0 893e e06c a5bc 4338 a83d
000002e0: 3f9b 9dbe f75c a8be eca3 fc3c dd95 96be
000002f0: 552f 19be 9428 3cbe c5c4 2fbe 0e6a a8bd
00000300: b5ab d93d 5a5a 33be e5a7 8fba 24cb 9f3e
00000310: 6f8b fb3d cb26 063e 046b 063d 562c 01bd
00000320: 2207 c8bd d68d d43e d016 a4bd 29c2 053e
00000330: 620f c3be e412 4c3d 69e3 95be 602d b1bd
00000340: 6d4c 1c3e c9ba 46bd a99e 8c3d 528d cdbd
00000350: c24a 843d f326 403d a79b 9d3e 2294 92bd
00000360: 7a40 e23e 9b8a 1cbd 9eb9 7c3e f22e bd3c
00000370: 3e3b a23e 005d 5a3c e9fa 72be c54f f8bd
00000380: 197d 81bd 59d0 923e cb44 b93e ec60 5bbe
00000390: 4dc3 1d3e 8453 e53e 363a 313e 056b e73d
000003a0: 2a6f a83d 9475 0dbd 204d 46be c811 3e3e
000003b0: ac31 93be f34f 563e 4f46 483c 943e d63d
000003c0: 2355 c03b a967 cabd 54b9 c2be f82a 68be
000003d0: c78e 1e3e 6bcb 98bd 409b ab3d 951a 803e
000003e0: 601d afbe e42f 713d c3fa 40be 3ad2 c3bd
000003f0: 1102 ccbe e8d0 faba 622a 65be c6a0 b43d

feature_extractor.block_2.skipbn.weight f4 [32]
0.09214616 0.5268576 0.4087658 0.55324835 0.66873795 0.09386297 0.69477206 0.6453691
0.45730507 0.5116492 0.34128353 0.29206493 0.40205044 0.37183824 0.5547299 0.09365175
0.40334702 0.1740971 0.24666351 0.73614144 0.35438117 0.6443372 0.49977177 0.14987105
0.8119075 0.42569622 0.42643645 0.46979177 0.29551414 0.4439264 0.040805433 0.14023733
00000000: 20b7 bc3d 24e0 063f c049 d13e afa1 0d3f
00000010: 6932 2b3f 3b3b c03d 95dc 313f e936 253f
00000020: e423 ea3e 71fb 023f b7bc ae3e 8989 953e
00000030: 8ed9 cd3e 9561 be3e c702 0e3f 7dcc bf3d
00000040: 8083 ce3e 8346 323e 5c95 7c3e c473 3c3f
00000050: 7371 b53e 48f3 243f 16e2 ff3e cc77 193e
00000060: 2bd9 4f3f dbf4 d93e e155 da3e 8c88 f03e
00000070: a14d 973e 524a e33e 9923 273d 609a 0f3e

feature_extractor.block_2.skipbn.bias f4 [32]
0.036322888 0.22445218 -0.1331772 -0.10006595 -0.014990501 -0.109075315 0.17313538 0.023918152
-0.23373051 0.34240675 0.025174432 0.18224144 -0.0149431275 0.23533922 0.2105478 -0.15884067
-0.2536739 0.15349646 0.19746092 -0.021458503 0.06680381 0.16527373 0.14389893 0.15815037
-0.015166663 0.116368406 -0.08164844 0.29943725 -0.23958069 -0.15578662 -0.014662502 -0.17010851
00000000: 4fc7 143d cbd6 653e 9b5f 08be 60ef ccbd
00000010: b89a 75bc e162 dfbd 674a 313e 00f0 c33c
00000020: 0d57 6fbe f04f af3e 9c3a ce3c 809d 3a3e
00000030: 05d4 74bc c4fc 703e d899 573e 21a7 22be
00000040: 8ce1 81be 2d2e 1d3e 3233 4a3e bec9 afbc
00000050: 70d0 883d 843d 293e 3e5a 133e 2cf2 213e
00000060: 987d 78bc 8f52 ee3d 4c37 a7bd d74f 993e
00000070: a454 75be 8786 1fbe fe3a 70bc ed30 2ebe

feature_extractor.block_2.skipbn.running_mean f4 [32]
1.4095933 1.0775341 0.62119067 0.67331725 -0.06465986 -0.06058032 -0.995641 -0.89399666
0.10126759 -0.23572443 -1.3930019 -0.8082306 0.27513117 0.5771304 1.192631 -0.9763935
-0.19520195 0.045515154 0.40003395 -1.5323557 -0.05028105 -0.68893313 0.9327224 1.2063925
-0.23453006 -1.1387724 1.4457797 -0.6195594 -0.07313428 0.043386895 -0.6578987 -0.23301065
00000000: 8e6d b43f a3ec 893f 5a06 1f3f 855e 2c3f
00000010: 646c 84bd 1223 78bd 54e2 7ebf f7dc 64bf
00000020: 6265 cf3d bf61 71be e34d b2bf 33e8 4ebf
00000030: fedd 8c3e d1be 133f 22a8 983f edf4 79bf
00000040: 05e3 47be 196e 3a3d 40d1 cc3e 3b24 c4bf
00000050: 81f3 4dbd ec5d 30bf e5c6 6e3f 126b 9a3f
00000060: a628 70be 4bc3 91bf 4f0f b93f 729b 1ebf
00000070: 6dc7 95bd 75b6 313d 0d6c 28bf 589a 6ebe

feature_extractor.block_2.skipbn.running_var f4 [32]
0.82973564 1.0673386 0.33478948 0.962862 0.74041337 0.7969672 0.95683587 1.485051
1.1209803 0.72638136 0.8869715 0.9452759 1.0220481 0.95456034 0.5941118 1.1610522
0.6627893 0.38676277 0.73343444 0.9715108 0.67736614 0.9888882 0.5246917 0.84327906
0.9832101 0.89145213 1.9342681 0.91380966 0.6897086 0.8301471 0.85668087 0.92545843
00000000: 8e69 543f 8d9e 883f 8769 ab3e 207e 763f
00000010: bb8b 3d3f 0b06 4c3f 32f3 743f 2716 be3f
00000020: 487c 8f3f 21f4 393f 9010 633f 9afd 713f
00000030: 79d2 823f 115e 743f b617 183f 5c9d 943f
00000040: 8fac 293f c505 c63e 5cc2 3b3f efb4 783f
00000050: de67 2d3f c727 7d3f 3252 063f 23e1 573f
00000060: a8b3 7b3f 3536 643f 1996 f73f 6eef 693f
00000070: be90 303f 8584 543f 704f 5b3f d8ea 6c3f

feature_extractor.block_2.rep.1.conv1.weight f4 [16, 1, 3, 3]
-0.3178878 0.14411728 0.03651958 -0.005186877 -0.00031367247 -0.30334157 0.25599462 0.3079476
0.34535694 -0.3379963 -0.2651469 -0.085947886 -0.3479359 0.0494696 0.03648213 0.24678327
0.3755747 0.015350809 -0.28188422 0.12514758 -0.010310655 0.15507881 -0.062639765 -0.13024887
0.5084904 0.30616403 0.15425348 0.15538524 0.14312989 0.44981816 0.17914614 -0.21136418
0.041159686 -0.33744323 -0.16186383 -0.48309907 -0.018077936 0.14370932 0.16467676 -0.019774143
0.3616584 0.19150017 -0.18918917 -0.12617926 -0.3341793 0.096230365 -0.17320618 0.21381462
-0.2677512 0.10610114 0.07547855 -0.17649505 0.4362475 0.50157374 0.30471256 0.26048586
-0.27007046 0.27348182 -0.3111495 -0.02444792 0.09792181 -0.02385448 0.07616492 0.2602356
0.19996974 0.2744122 -0.107381776 -0.061474584 -0.18615277 -0.31368342 -0.2306392 -0.42547923
-0.4826394 -0.09363579 -0.2304417 -0.1697203 0.25275454 0.31501302 0.03114814 -0.028478941
-0.25983077 -0.30964506 -0.43000436 0.11857229 0.027915256 -0.20177983 0.1628246 0.08202323
-0.13737209 0.08557089 -0.18711355 -0.08608153 0.082217626 -0.39584962 -0.3597216 -0.09608371
-0.32963532 -0.044396307 0.30031836 0.02350179 -0.340617 -0.28529513 0.05830235 -0.16274571
-0.27704656 -0.22105473 -0.2791605 -0.060766038 -0.3255288 0.10625964 0.30798176 -0.34660348
-0.35004973 0.17239141 -0.49151003 0.08655102 0.08554997 0.06392527 -0.35566494 -0.43808964
-0.107601695 -0.1940597 0.25579506 0.06816112 0.30459577 0.025755791 -0.13409609 0.035293207
-0.2963538 -0.2699726 -0.11045389 0.066711195 -0.50323844 -0.18566753 -0.3436183 -0.20429003
-0.13906856 0.16431817 -0.08116514 -0.11321337 -0.3054592 0.017519642 -0.33490998 -0.29251662
00000000: 31c2 a2be 7b93 133e 8e95 153d aef6 a9bb
00000010: 6874 a4b9 964f 9bbe ba11 833e 4fab 9d3e
00000020: a0d2 b03e da0d adbe 56c1 87be 7205 b0bd
00000030: a724 b2be a3a0 4a3d 496e 153d c1b4 7c3e
00000040: 544b c03e f681 7b3c 2153 90be b026 003e
00000050: 06ee 28bc fbcc 1e3e 4749 80bd f65f 05be
00000060: 6d2c 023f 88c1 9c3e a0f4 1d3e 4f1d 1f3e
00000070: a490 123e 914e e63e 1672 373e da6f 58be
00000080: 0f97 283d 5cc5 acbe a2bf 25be c358 f7be
00000090: 2e18 94bc 8928 133e 06a1 283e 62fd a1bc
000000a0: 4a2b b93e 9f18 443e ceba 41be 2335 01be
000000b0: 8d19 abbe 6d14 c53d f65c 31be 38f2 5a3e
000000c0: af16 89be 8e4b d93d 7f94 9a3d 1ebb 34be
000000d0: d55b df3e 2367 003f 4903 9c3e 675e 853e
000000e0: ad46 8abe cf05 8c3e fd4e 9fbe 0147 c8bc
000000f0: 3b8b c83d 786a c3bc 5bfc 9b3d 9a3d 853e
00000100: dec4 4c3e c27f 8c3e faea dbbd c6cc 7bbd
00000110: d59e 3ebe 1d9b a0be af2c 6cbe 6ad8 d9be
00000120: 831c f7be 1fc4 bfbd e9f8 6bbe 29cb 2dbe
00000130: 0b69 813e 6349 a13e 622a ff3c ab4c e9bc
00000140: 8a08 85be cc89 9ebe 8829 dcbe 07d6 f23d
00000150: 89ae e43c 5f9f 4ebe 7ebb 263e ccfb a73d
00000160: 45ab 0cbe ca3f af3d b29a 3fbe 834b b0bd
00000170: b761 a83d cdac cabe 6e2d b8be 89c7 c4bd
00000180: f6c5 a8be e7d8 35bd 54c3 993e d386 c03c
00000190: 5a65 aebe 3412 92be 72ce 6e3d d0a6 26be
000001a0: 0cd9 8dbe 2c5c 62be 20ee 8ebe cfe5 78bd
000001b0: b6ab a6be a79e d93d c9af 9d3e 0376 b1be
000001c0: b839 b3be 6087 303e 34a7 fbbe a941 b13d
000001d0: d334 af3d 41eb 823d b719 b6be 494d e0be
000001e0: 475e dcbd 96b7 46be 92f7 823e 0f98 8b3d
000001f0: faf3 9b3e cffd d23c 7c50 09be 9c8f 103d
00000200: afbb 97be d939 8abe a635 e2bd e19f 883d
00000210: 3cd4 00bf a11f 3ebe bdee afbe 6831 51be
00000220: fd67 0ebe 0643 283e e939 a6bd 69dc e7bd
00000230: 2665 9cbe 5a85 8f3c 5279 abbe bdc4 95be
