models/gender.pth (torch_old, 230869 bytes, 80 tensors)

feature_extractor.con2d_1.weight f4 [8, 3, 3, 3]
1.4518325 1.801212 0.7816321 0.6111711 1.2033887 0.96578676 0.15130202 0.019106638
-0.04858874 -0.73369014 -0.022216257 -0.9563072 -1.6050664 -0.9683687 -0.6387197 -0.91909486
-1.6117638 -1.0249263 0.9290566 1.6320134 0.6239872 0.35431767 1.222939 1.0925937
0.82858324 0.17745437 0.6537887 -0.8854262 -0.96557105 -1.9587592 -3.697688 -2.8500373
-1.7337468 0.6899864 -2.297624 -1.5566052 3.8985348 3.7851918 -0.1079887 0.7710666
3.789181 3.7310867 2.83283 2.0200217 3.2959688 1.1603137 1.925013 -1.5101788
-2.2579582 0.21715486 0.59070337 -1.2100788 -2.2892427 -1.0102752 -2.9384317 -2.8580942
0.26125795 -2.9169102 -0.44357392 3.683797 -1.060424 0.6673238 2.5745509 -1.445515
-1.2240576 1.205328 -1.7911805 1.1165909 5.201091 -0.58255124 1.9548343 3.3405182
-1.8878831 -2.6060708 -0.58957916 -2.624663 -0.60963213 3.0552518 -1.1726576 -0.32244438
0.8720442 -1.2023654 -0.8116833 1.3586333 -8.843568 -8.735619 0.3797663 -0.89875513
-2.4268756 -0.026702277 0.15108934 -1.3361747 -1.2393323 -1.1683868 -2.1691697 0.8534412
2.3346572 1.584146 1.972943 0.77981377 -1.0629722 -1.9771571 0.31209013 -1.4613128
0.332184 2.72473 1.6246561 0.40535742 -0.006676923 0.19532427 0.0510197 0.0043995534
0.16741587 0.31034085 0.09196225 0.21100353 0.258767 0.22256778 0.7111556 0.45024306
0.33852997 0.31527442 0.5512846 0.3016284 -0.038105097 0.26769102 -0.0026743205 0.21454449
0.105206385 0.020888433 -0.06067117 -0.10710264 -0.29743284 -0.36298913 -0.15807222 -0.12458886
-0.06420648 0.17413792 0.12947354 0.044461727 0.2134051 0.23642956 0.28342378 0.18239236
-0.033033025 -0.15435338 0.4157746 0.6818077 0.35269699 0.10554293 0.3633431 0.55566394
0.3310032 -0.23809904 -0.17206277 -0.03416309 0.29917932 0.25840864 0.1600969 0.32883668
0.69087714 0.06708519 1.6979032 5.056935 5.3152 -2.0142493 -0.10407476 2.7804754
-2.829 -3.864266 -0.6189925 -0.39185682 2.6945252 2.308597 -3.2053833 -1.635433
1.3984336 -2.0438485 -3.6260443 -0.79689527 -0.47258523 1.7939811 1.0554185 -1.6461993
-0.23880816 1.8080173 -0.013194146 -0.87429017 0.93728185 0.07106505 2.7036874 -0.9136372
2.9168067 7.314377 5.9230547 3.0535295 2.8141491 2.4582396 -0.36283898 2.2118943
2.5140996 -1.4221561 -0.4859179 1.26106 -0.45654818 -3.4108384 -3.4301841 -1.2292925
0.7890881 1.0928437 0.88356495 1.183298 2.3142066 2.3890798 0.003649704 -0.22812137
00000000: a6d5 b93f 1d8e e63f 0b19 483f b675 1c3f
00000010: a408 9a3f cd3d 773f ebee 1a3e 8685 9c3c
00000020: fd04 47bd 1ed3 3bbf defe b5bc 8cd0 74bf
00000030: d172 cdbf 03e7 77bf 2283 23bf cd49 6bbf
00000040: 474e cebf c930 83bf a7d6 6d3f d1e5 d03f
00000050: a0bd 1f3f 2069 b53e 4489 9c3f 1cda 8b3f
00000060: 081e 543f 99b6 353e b25e 273f 4bab 62bf
00000070: aa2f 77bf 9fb8 fabf eca6 6cc0 0367 36c0
00000080: 6aeb ddbf f3a2 303f 460c 13c0 d73e c7bf
00000090: 9881 7940 9540 7240 2e29 ddbd 9f64 453f
000000a0: f181 7240 20ca 6e40 164d 3540 0948 0140
000000b0: 27f1 5240 2985 943f d366 f63f 8a4d c1bf
000000c0: 6382 10c0 d85d 5e3e 5638 173f dde3 9abf
000000d0: f482 12c0 b350 81bf 440f 3cc0 04eb 36c0
000000e0: 9ac3 853e a8ae 3ac0 1f1c e3be 54c3 6b40
000000f0: f9bb 87bf bcd5 2a3f 71c5 2440 a306 b9bf
00000100: ebad 9cbf 3048 9a3f 6745 e5bf 73ec 8e3f
00000110: 566f a640 1422 15bf 0338 fa3f 0dcb 5540
00000120: 27a6 f1bf ddc9 26c0 a9ee 16bf 7bfa 27c0
00000130: da10 1cbf 3f89 4340 a519 96bf 6e17 a5be
00000140: 4a3e 5f3f 1ce7 99bf 7aca 4fbf b2e7 ad3f
00000150: 417f 0dc1 18c5 0bc1 ba70 c23e d114 66bf
00000160: ee51 1bc0 bcbe dabc 2ab7 1a3e c607 abbf
00000170: 71a2 9ebf b38d 95bf add3 0ac0 1f7b 5a3f
00000180: 066b 1540 4cc5 ca3f 6589 fc3f e0a1 473f
00000190: 790f 88bf 7c13 fdbf 47ca 9f3e 4c0c bbbf
000001a0: 0514 aa3e fa61 2e40 bbf4 cf3f 028b cf3e
000001b0: 17ca dabb 1603 483e 08fa 503d 212a 903b
000001c0: 116f 2b3e ffe4 9e3e b456 bc3d 4f11 583e
000001d0: 1c7d 843e cfe8 633e 4b0e 363f 4286 e63e
000001e0: cd53 ad3e a66b a13e fd20 0d3f 0a6f 9a3e
000001f0: 1714 1cbd cc0e 893e a743 2fbb 8db1 5b3e
00000200: 7276 d73d 381e ab3c 5582 78bd a158 dbbd
00000210: 1e49 98be b6d9 b9be afdd 21be 7228 ffbd
00000220: b07e 83bd 3651 323e b694 043e 801d 363d
00000230: de86 5a3e 971a 723e ec1c 913e 10c5 3a3e
00000240: a34d 07bd d00e 1ebe 69e0 d43e f38a 2e3f
00000250: b394 b43e e426 d83d 1b08 ba3e fe3f 0e3f
00000260: 4079 a93e 3cd0 73be 3931 30be 99ee 0bbd
00000270: 082e 993e 234e 843e 71f0 233e 485d a83e
00000280: 53dd 303f f663 893d e454 d93f 69d2 a140
00000290: 1e16 aa40 76e9 00c0 2625 d5bd 4ff3 3140
000002a0: 560e 35c0 2250 77c0 4b76 1ebf 75a1 c8be
000002b0: 1a73 2c40 0ec0 1340 0025 4dc0 de55 d1bf
000002c0: dfff b23f 6ace 02c0 1c11 68c0 5401 4cbf
000002d0: b1f6 f1be 2ca1 e53f f417 873f a9b6 d2bf
000002e0: 208a 74be 1c6d e73f 422c 58bc 7bd1 5fbf
000002f0: b4f1 6f3f 8e8a 913d 3709 2d40 21e4 69bf
00000300: f6ac 3a40 600f ea40 aa89 bd40 076d 4340
00000310: 051b 3440 cc53 1d40 08c6 b9be ad8f 0d40
00000320: 02e7 2040 3609 b6bf 3bca f8be 6a6a a13f
00000330: afc0 e9be 2d4b 5ac0 2388 5bc0 7559 9dbf
00000340: ad01 4a3f 4de2 8b3f 5031 623f 4f76 973f
00000350: f61b 1440 afe6 1840 df2f 6f3b a698 69be

feature_extractor.bn_1.weight f4 [8]
0.08981552 1.8433734 2.3094935 2.139746 0.08267989 0.0035848645 2.4919267 2.4226885
00000000: 33f1 b73d a9f3 eb3f bece 1340 99f1 0840
00000010: 1354 a93d 0cf0 6a3b ba7b 1f40 540d 1b40

feature_extractor.bn_1.bias f4 [8]
-0.79309934 4.603981 -0.16009901 1.5986264 -0.32473662 -0.35649174 2.7102635 -1.0874496
00000000: 8f08 4bbf d053 9340 fff0 23be ca9f cc3f
00000010: e143 a6be 1686 b6be f574 2d40 8c31 8bbf

feature_extractor.bn_1.running_mean f4 [8]
2.5758781 0.3754576 -0.29774144 -9.305575 1.6030155 1.9829279 1.4121524 13.789282
00000000: 30db 2440 fb3b c03e 9171 98be a3e3 14c1
00000010: 9d2f cd3f 95d0 fd3f 69c1 b43f e6a0 5c41

feature_extractor.bn_1.running_var f4 [8]
2.6967173 3.1494863 6.311421 32.185154 0.9241134 1.5031972 7.0023947 65.99352
00000000: 0497 2c40 2f91 4940 29f7 c940 99bd 0042
00000010: b292 6c3f c468 c03f 9e13 e040 affc 8342

feature_extractor.con2d_2.weight f4 [8, 8, 3, 3]
2.0025995 1.5319842 0.8276744 1.3726373 1.0156302 0.5944466 0.5182526 0.4838904
0.057331104 0.2088281 2.7463102 2.655742 -0.4892725 -0.7457236 0.42784443 1.3986721
0.56006587 -1.1026181 0.51073223 -1.3868794 -1.6213039 -1.6134362 -1.0077714 -1.00326
-3.019689 -2.1662707 -2.0571477 0.5256619 0.75761783 0.5209655 -1.477787 -0.8160813
1.4110663 -2.823335 -3.8538363 -1.8661636 0.045768898 0.23370592 0.06448371 0.13545719
0.21093224 0.07989977 0.28681415 0.111304775 0.18769829 -0.020094912 -0.090485774 0.08235404
0.29287356 0.36539683 0.44336787 0.4071606 0.54115653 0.49656957 3.743425 2.8048966
3.1413276 1.9758444 -0.8496696 -0.076202706 3.9033148 3.781748 3.470472 6.2774053
5.3278675 2.448392 2.3586073 3.7111228 3.1803534 -0.36991024 0.15303431 0.26276797
1.4858379 1.0906065 0.5666488 1.4668914 1.1388128 0.45588374 0.89940464 0.8977299
0.49589926 -0.974532 -1.777827 -3.182801 0.92288005 0.013433823 -2.0445783 0.8510838
1.1454805 0.36654168 -1.2941383 -1.8780289 -2.8240764 -3.0060189 -2.4393585 -0.79613423
-4.133883 -2.6363173 0.08521142 -1.3574383 0.0579986 1.5180379 1.497683 3.7915711
4.7276206 2.266407 4.631368 5.5017943 0.13761914 0.052236523 0.13525297 0.15299277
0.015418363 0.07328148 0.1619885 -0.019012861 0.016473312 0.16533047 0.078146875 0.028895564
-0.20192023 -0.020071112 -0.03549682 -0.21477787 -0.16796003 -0.088748716 3.305063 1.5811373
1.0103992 2.956646 1.4626763 0.016633766 2.245476 2.6402912 3.7325654 1.021446
0.1613264 -0.28607988 0.15710662 -0.38566712 -0.40972582 -2.1213899 -2.5830824 -1.6494887
-0.09623526 0.28833964 0.8989291 -0.65525854 -1.4977312 -0.44053143 0.47300118 -0.11581005
-0.6911296 0.60742766 -1.9852126 0.4363072 1.84565 -2.9102347 -2.738141 0.1504704
1.4785665 -0.8682913 0.10888914 -3.5905204 -0.732266 0.051175553 -2.4001482 -0.77492
-1.1955565 -3.068851 -2.4210198 -0.3652568 0.8097578 2.884593 -0.029372599 -1.6035558
0.36674893 0.6900181 -1.1336752 -2.0492725 -0.06770479 0.05342021 0.3030903 0.006722217
0.12823214 0.19140327 0.0662567 0.11697162 0.035566904 0.28545657 0.46419233 -0.20733978
0.61553776 0.16506355 -0.107460156 0.69600797 0.45577127 0.12720586 2.6644273 -2.1828249
-0.892048 -0.53495884 -12.894669 -1.1106532 0.7165003 -4.0983763 -1.9326297 -1.54529
-0.10264395 0.987908 0.3699658 0.014515242 2.2827594 3.999205 2.4130478 1.7338332
-1.6076746 -1.3052555 -0.44007185 -0.48669112 -1.265149 -1.1845237 0.5088638 0.8905942
-0.06902543 -1.9622508 -1.4417996 6.292469 1.118133 -2.1880724 -3.2842183 -4.3902397
2.594113 2.6897933 0.021534173 -3.1420815 -1.9729125 1.1121435 -4.722291 -2.4277813
-2.5712538 -5.308781 -3.3465087 -0.15672547 0.027879128 1.0486705 1.0332038 -4.0978146
-2.5799031 0.5359126 1.383661 2.5139182 -0.26413757 -0.30722982 -0.29745096 -0.074280664
00000000: 972a 0040 0f18 c43f 78e2 533f 94b2 af3f
00000010: 2c00 823f a72d 183f 34ac 043f 7cc0 f73e
00000020: 05d4 6a3d 09d7 553e 8cc3 2f40 adf7 2940
00000030: ed81 fabe bee7 3ebf 6d0e db3e b007 b33f
00000040: 7a60 0f3f 9722 8dbf 59bf 023f 4485 b1bf
00000050: e386 cfbf 1485 cebf a7fe 80bf d36a 80bf
00000060: 9642 41c0 2ea4 0ac0 4fa8 03c0 c791 063f
00000070: 3ef3 413f ff5d 053f 2028 bdbf b4ea 50bf
00000080: d29d b43f 85b1 34c0 41a5 76c0 73de eebf
00000090: 2b78 3b3d 9b50 6f3e 0910 843d 4ab5 0a3e
000000a0: 9ffe 573e 7ea2 a33d 4ed9 923e c2f3 e33d
000000b0: fb33 403e 169e a4bc 9b50 b9bd 3ca9 a83d
000000c0: 86f3 953e 4b15 bb3e 1d01 e33e 5b77 d03e
000000d0: 3c89 0a3f 5e3e fe3e 4694 6f40 6d83 3340
000000e0: 830b 4940 78e8 fc3f f283 59bf 2a10 9cbd
000000f0: e9cf 7940 2908 7240 371c 5e40 81e0 c840
00000100: e47d aa40 74b2 1c40 6cf3 1640 0983 6d40
00000110: e98a 4b40 e064 bdbe 07b5 1c3e 8689 863e
00000120: f02f be3f fe98 8b3f e50f 113f 19c3 bb3f
00000130: 9ec4 913f 9869 e93e 623f 663f a0d1 653f
00000140: 82e6 fd3e ee7a 79bf d68f e3bf 03b3 4bc0
00000150: de41 6c3f 8a19 5c3c 5fda 02c0 a1e0 593f
00000160: 1b9f 923f 5aab bb3e 53a6 a5bf 4063 f0bf
00000170: abbd 34c0 9d62 40c0 731e 1cc0 74cf 4bbf
00000180: c548 84c0 6cb9 28c0 5383 ae3d 8ac0 adbf
00000190: f18f 6d3d 114f c23f 14b4 bf3f 1aa9 7240
000001a0: ab48 9740 d00c 1140 2b34 9440 b30e b040
000001b0: 08ec 0c3e f7f5 553d c17f 0a3e 23aa 1c3e
000001c0: 4d9d 7c3c 9a14 963d 50e0 253e dcc0 9bbc
000001d0: 0af3 863c 644c 293e 780b a03d 64b6 ec3c
000001e0: 2dc4 4ebe 2c6c a4bc 1d65 11bd bbee 5bbe
000001f0: b7fd 2bbe e3c1 b5bd 2786 5340 b562 ca3f
00000200: c354 813f b039 3d40 fa38 bb3f 8943 883c
00000210: e1b5 0f40 88fa 2840 5ae2 6e40 bebe 823f
00000220: bf32 253e 1079 92be 8fe0 203e 2976 c5be
00000230: 95c7 d1be dac4 07c0 3951 25c0 7222 d3bf
00000240: fe16 c5bd 41a1 933e 3820 663f 06bf 27bf
00000250: a8b5 bfbf 568d e1be 362d f23e d22d edbd
00000260: dfed 30bf 6180 1b3f 721b febf a863 df3e
00000270: 423e ec3f 4941 3ac0 b43d 2fc0 ea14 1a3e
00000280: ab41 bd3f 5748 5ebf 4501 df3d 16cb 65c0
00000290: c975 3bbf 759d 513d 079c 19c0 2861 46bf
000002a0: ff07 99bf 0e68 44c0 fdf1 1ac0 f002 bbbe
000002b0: 4a4c 4f3f 2c9d 3840 ce9e f0bc 5141 cdbf
000002c0: 84c6 bb3e 07a5 303f 451c 91bf 4827 03c0
000002d0: cfa8 8abd 26cf 5a3d a72e 9b3e 0b46 dc3b
000002e0: 494f 033e 38ff 433e 98b1 873d d18e ef3d
000002f0: 9aae 113d 5d27 923e 9eaa ed3e e150 54be
00000300: e293 1d3f 6b06 293e 1214 dcbd 942d 323f
00000310: da5a e93e 4142 023e fa85 2a40 67b3 0bc0
00000320: 425d 64bf 10f3 08bf 9050 4ec1 e229 8ebf
00000330: 906c 373f e625 83c0 6960 f7bf 10cc c5bf
00000340: fe36 d2bd 8ae7 7c3f 286c bd3e 56d1 6d3c
00000350: bb18 1240 faf2 7f40 606f 1a40 3fee dd3f
00000360: 48c8 cdbf 9d12 a7bf 1951 e1be 942f f9be
00000370: 67f0 a1bf 799e 97bf e644 023f fbfd 633f
00000380: 345d 8dbd 092b fbbf e48c b8bf e85b c940
00000390: fb1e 8f3f 6109 0cc0 a230 52c0 d87c 8cc0
000003a0: f305 2640 9325 2c40 6f68 b03c dd17 49c0
000003b0: 6688 fcbf b85a 8e3f 021d 97c0 c560 1bc0
000003c0: 6c8f 24c0 89e1 a9c0 332d 56c0 a47c 20be
000003d0: c562 e43c d63a 863f 0640 843f 4c21 83c0
000003e0: 221d 25c0 9131 093f ce1b b13f 09e4 2040
000003f0: 0a3d 87be 3a4d 9dbe 7e4b 98be 7620 98bd

feature_extractor.bn_2.weight f4 [8]
1.4620417 1.7490118 3.2202196 2.3843963 1.9586066 1.5820787 2.296811 2.8774319
00000000: 2f24 bb3f 9edf df3f 1418 4e40 f399 1840
00000010: 9fb3 fa3f 8e81 ca3f f4fe 1240 d827 3840

feature_extractor.bn_2.bias f4 [8]
1.7140772 0.99037766 2.6741874 2.6016128 0.97939974 5.8952827 1.7444054 -0.95695156
00000000: e266 db3f 6489 7d3f e325 2b40 d380 2640
00000010: f1b9 7a3f 28a6 bc40 ad48 df3f c7fa 74bf

feature_extractor.bn_2.running_mean f4 [8]
80.64504 59.712017 -80.60463 -9.19928 60.813625 176.87022 -130.82878 -17.088713
00000000: 434a a142 1bd9 6e42 9235 a1c2 4030 13c1
00000010: 2741 7342 c7de 3043 2bd4 02c3 afb5 88c1

feature_extractor.bn_2.running_var f4 [8]
3301.3525 1773.3628 2109.8489 780.89514 1423.2119 4937.5615 4191.6323 1699.8522
00000000: a455 4e45 9cab dd44 95dd 0345 4a39 4344
00000010: c8e6 b144 7e4c 9a45 0ffd 8245 457b d444

feature_extractor.block_1.skip.weight f4 [16, 8, 1, 1]
-0.84477407 -0.6235496 -0.4407043 -1.045315 -0.37742257 -10.311836 3.628918 -1.5406526
0.9670481 -2.1140156 5.786947 -3.4805088 0.908801 1.5010247 -0.07767248 1.105085
-1.350021 -0.4266223 -0.6305726 3.577744 -7.7834797 -0.29926673 -0.19467482 -0.6213509
3.0300698 -0.024268983 1.2880054 -1.4957451 -0.81355315 -2.738523 5.3036857 -2.3584929
-3.263244 2.0566645 3.2766788 -2.4533472 0.7090689 0.17580728 -1.8297532 3.3607647
1.2647225 -4.3113513 1.2856716 2.9534144 -1.6062202 -0.7034849 1.0800862 -4.690293
-1.4605972 1.0180349 -5.0601015 2.9499884 1.9544377 0.06770584 -1.4475435 -4.0783467
-3.1748955 2.4192052 1.7572188 -3.1100044 1.0855223 3.8207934 -0.014213866 2.8541925
1.099554 2.4947221 0.10582275 -2.5931063 -0.66382354 2.9261599 1.1194094 5.7886424
2.8407338 -0.037051767 2.0241377 -2.670808 -1.4318862 -0.7745944 -0.51581067 7.42344
-1.8898575 0.9509421 1.4358181 -1.9105586 1.2411616 -3.882541 4.05108 4.159183
2.230971 0.6198559 2.787963 -2.1414464 -1.1178988 -0.6641004 -0.1050581 -5.5347667
-1.8989241 0.7821264 2.4769018 4.944174 -4.175659 1.0445955 -0.030400353 -1.3489519
4.204661 3.3931613 -2.5055678 2.4988186 2.43156 -0.3022434 1.3706548 1.2088733
1.078829 2.1899254 -6.7839656 1.0092776 2.0168898 0.39938784 0.7888053 2.2696207
-2.398535 -5.4537735 1.0151485 -0.93119603 -1.6431401 -1.2828865 -2.952106 -1.6190494
00000000: 1d43 58bf f2a0 1fbf fea3 e1be e2cc 85bf
00000010: 883d c1be 48fd 24c1 3140 6840 1b34 c5bf
00000020: 7790 773f 084c 07c0 ab2e b940 a8c0 5ec0
00000030: 2fa7 683f 9421 c03f c012 9fbd 6d73 8d3f
00000040: 7dcd acbf 3d6e dabe 356d 21bf c2f9 6440
00000050: 4412 f9c0 7d39 99be d658 47be da10 1fbf
00000060: aaec 4140 bfcf c6bc 5cdd a43f 9374 bfbf
00000070: 0545 50bf f643 2fc0 cbb7 a940 8cf1 16c0
00000080: fdd8 50c0 64a0 0340 1bb5 5140 a403 1dc0
00000090: 8a85 353f d306 343e 5a35 eabf c516 5740
000000a0: 6de2 a13f 97f6 89c0 e390 a43f be04 3d40
000000b0: a098 cdbf 9617 34bf 4440 8a3f e116 96c0
000000c0: d9f4 babf f84e 823f 5aec a1c0 9ccc 3c40
000000d0: 042b fa3f 5ca9 8a3d 1b49 b9bf d181 82c0
000000e0: 7d31 4bc0 42d4 1a40 8cec e03f 500a 47c0
000000f0: 65f2 8a3f e187 7440 46e1 68bc 17ab 3640
00000100: 2fbe 8c3f 87a9 1f40 99b9 d83d 74f5 25c0
00000110: 57f0 29bf 3446 3b40 cf48 8f3f 8f3c b940
00000120: 95ce 3540 98c3 17bd 798b 0140 85ee 2ac0
00000130: 0c48 b7bf d24b 46bf 2b0c 04bf d28c ed40
00000140: dae6 f1bf f170 733f e3c8 b73f 2f8d f4bf
00000150: 62de 9e3f 8d7b 78c0 73a2 8140 0718 8540
00000160: 3bc8 0e40 e0ae 1e3f fc6d 3240 750d 09c0
00000170: 4f17 8fbf 7c02 2abf b328 d7bd cf1c b1c0
00000180: f20f f3bf 7039 483f 8f85 1e40 ac36 9e40
00000190: 009f 85c0 4eb5 853f 290a f9bc 75aa acbf
000001a0: 958c 8640 8e29 5940 395b 20c0 a5ec 1f40
000001b0: ae9e 1b40 a6bf 9abe 9e71 af3f 5cbc 9a3f
000001c0: 1217 8a3f bd27 0c40 3f16 d9c0 0230 813f
000001d0: b914 0140 907c cc3e 25ef 493f 7741 1140
000001e0: 9981 19c0 5085 aec0 63f0 813f dd62 6ebf
000001f0: 6a52 d2bf a035 a4bf 4eef 3cc0 033d cfbf

feature_extractor.block_1.skipbn.weight f4 [16]
6.417151 1.1613045 1.9650111 1.7779125 2.885189 -1.495349 -0.44844142 2.960012
1.4000281 0.5226004 2.7976358 -0.61681575 0.07456292 5.0204926 0.15439847 1.0767528
00000000: 4d59 cd40 a0a5 943f 7c85 fb3f a392 e33f
00000010: f0a6 3840 9967 bfbf 1d9a e5be d670 3d40
00000020: 1f34 b33f 24c9 053f 770c 3340 a3e7 1dbf
00000030: 72b4 983d e0a7 a040 a21a 1e3e 09d3 893f

feature_extractor.block_1.skipbn.bias f4 [16]
3.9086568 0.79836166 0.6881735 -0.16384017 2.0512621 -1.4378315 1.0069815 -0.96887785
1.6703812 -2.5654957 1.3461342 -1.3489411 -3.6971967 2.0849056 -0.59572697 0.4997019
00000000: 6f27 7a40 6e61 4c3f 232c 303f b8c5 27be
00000010: e147 0340 dd0a b8bf c5e4 803f 6108 78bf
00000020: 0dcf d53f 1531 24c0 204e ac3f 1aaa acbf
00000030: df9e 6cc0 186f 0540 9081 18bf edd8 ff3e

feature_extractor.block_1.skipbn.running_mean f4 [16]
-61.739742 17.646011 -7.0248857 -2.9726734 1.1197205 1.3772373 -12.015443 20.393244
21.497654 1.9830375 -13.017954 -2.6026542 19.465452 16.02932 -5.206044 -27.932531
00000000: 7ff5 76c2 082b 8d41 ddcb e0c0 4840 3ec0
00000010: 0053 8f3f 5049 b03f 413f 40c1 5d25 a341
00000020: 32fb ab41 2cd4 fd3f 8a49 50c1 e391 26c0
00000030: 3fb9 9b41 0c3c 8041 ea97 a6c0 d375 dfc1

feature_extractor.block_1.skipbn.running_var f4 [16]
455.45816 149.58899 236.3207 203.60388 202.74486 177.56274 222.19847 255.20386
151.38394 138.35077 191.00189 55.27174 237.2135 186.63237 267.0081 137.19576
00000000: a5ba e343 c896 1543 1952 6c43 989a 4b43
00000010: afbe 4a43 1090 3143 cf32 5e43 3034 7f43
00000020: 4a62 1743 cc59 0a43 7c00 3f43 4316 5d42
00000030: a836 6d43 e3a1 3a43 0981 8543 1d32 0943

feature_extractor.block_1.rep.1.conv1.weight f4 [8, 1, 3, 3]
-2.4524171 -1.9475249 -0.07330969 3.1228578 2.7509694 1.3346442 -0.92847747 0.56259286
1.3891613 -1.1556587 0.11632719 0.67813665 -2.1213486 0.3462055 2.083346 3.3273375
2.812309 1.1919242 -2.37872 -0.5511623 2.3671262 -1.8434263 -9.310054 1.1852295
0.66055554 0.2887785 1.262507 1.3197457 6.0503774 0.2354736 -2.0172684 -4.3599324
0.53538764 1.9723915 1.7255867 -1.7132554 2.3251004 3.9235342 3.0004601 -1.1268362
-4.2024636 1.3777273 2.3148615 -0.4861236 -0.05861165 -1.3901745 -0.28207555 1.621134
-2.3599956 -1.7617298 0.15078315 -1.2747245 0.47979966 2.591199 1.7117954 -2.4198244
-3.872109 2.1728778 -0.08435266 -2.483842 1.3389634 1.4749472 0.079184055 -2.413501
-0.36035553 3.290825 -1.7632681 -1.5551672 -0.44734478 -2.268514 -1.1882797 0.108058825
00000000: 67f4 1cc0 7f48 f9bf 6423 96bd e7dc 4740
00000010: e20f 3040 9fd5 aa3f b3b0 6dbf 1606 103f
00000020: 0ad0 b13f a0ec 93bf f33c ee3d 5d9a 2d3f
00000030: 2dc4 07c0 d941 b13e 8a55 0540 19f3 5440
00000040: dffc 3340 f990 983f f33c 18c0 f918 0dbf
00000050: ff7e 1740 65f5 ebbf fbf5 14c1 9ab5 973f
00000060: 2b1a 293f c7da 933e d499 a13f 6ded a83f
00000070: b19c c140 fe1f 713e ed1a 01c0 9184 8bc0
00000080: 2a0f 093f 5377 fc3f 06e0 dc3f f44b dbbf
00000090: 72ce 1440 2f1b 7b40 8a07 4040 2b3c 90bf
000000a0: 957a 86c0 5e59 b03f b126 1440 31e5 f8be
000000b0: c512 70bd 3df1 b1bf 356c 90be 5281 cf3f
000000c0: 2b0a 17c0 5d80 e1bf e666 1a3e 2c2a a3bf
000000d0: 4da8 f53e 34d6 2540 1d1c db3f 67de 1ac0
000000e0: a2d0 77c0 6e10 0b40 16c1 acbd 44f7 1ec0
000000f0: 2763 ab3f 12cb bc3f 402b a23d cd76 1ac0
00000100: 8580 b8be e09c 5240 c5b2 e1bf b80f c7bf
00000110: 600a e5be 552f 11c0 8d19 98bf f24d dd3d

feature_extractor.block_1.rep.1.pointwise.weight f4 [16, 8, 1, 1]
1.4283491 0.98477846 2.5803642 3.9466312 -3.3912914 2.018494 1.1016779 -1.2414899
-0.6036547 0.7755739 -2.291665 -0.96753997 1.79366 0.3124122 5.353025 2.7611113
0.17584269 -2.16653 -1.4761741 -4.529786 2.6350985 -1.5172406 -0.30078563 -1.2251621
0.33720252 1.7950553 0.19548011 5.58631 0.86063683 3.0300517 1.0785102 3.522822
-5.090718 -2.2572682 -2.5962737 -2.8416266 0.61812073 0.4854153 2.662685 0.19585165
-0.012382055 -4.589432 -2.908865 1.802966 -3.01891 1.2274733 1.2873594 1.5243156
-0.42578354 0.89181536 -6.538663 -1.1257522 1.2917879 0.6466877 2.5494921 1.435701
1.9914849 2.2540247 3.0102444 2.4309456 -0.14406729 -3.0836802 -0.9441854 3.1626523
-0.102002814 -0.18442512 0.13638602 -0.21422972 -0.31213272 0.4076365 0.31570932 0.27578092
-1.8195511 1.2920312 5.441708 1.4183133 -1.1143317 2.735906 -2.3309958 -2.670404
2.154604 1.0773023 -2.4772835 -3.037832 4.076599 -0.84335583 1.5764712 0.30125675
0.6216081 4.4280286 2.1685321 -1.1314672 3.2955904 1.1563162 4.178163 2.4900782
-1.8341473 -5.25662 0.37413558 1.3845927 -0.99466497 -0.8778892 1.6275163 -4.9365196
0.3953051 0.37130722 0.5254713 -0.15721092 -0.5737381 -0.41291985 0.07585677 -0.74026906
0.0805184 0.24997905 -0.18325467 -0.02480187 0.12302977 -0.1434514 -0.19924754 -0.16831331
-2.7490418 0.5996593 -4.8485613 -1.5749792 -3.1781557 -0.32274967 -0.34941372 0.40530387
00000000: 25d4 b63f 711a 7c3f b024 2540 9b95 7c40
00000010: eb0a 59c0 012f 0140 c803 8d3f 24e9 9ebf
00000020: 1d89 1abf 038c 463f a4aa 12c0 b3b0 77bf
00000030: a796 e53f 7ef4 9f3e fb4b ab40 0cb6 3040
00000040: 1b10 343e 6da8 0ac0 46f3 bcbf 02f4 90c0
00000050: 74a5 2840 f134 c2bf 9300 9abe 1dd2 9cbf
00000060: cfa5 ac3e 5fc4 e53f f02b 483e 0dc3 b240
00000070: b252 5c3f 5eec 4140 9f0c 8a3f ea75 6140
00000080: 29e7 a2c0 1577 10c0 5929 26c0 36dd 35c0
00000090: 293d 1e3f 5b88 f83e 6e69 2a40 568d 483e
000000a0: 1ade 4abc a0dc 92c0 d82a 3ac0 97c7 e63f
000000b0: d235 41c0 d81d 9d3f 31c8 a43f c61c c33f
000000c0: 4d00 dabe 034e 643f ba3c d1c0 a618 90bf
000000d0: 4e59 a53f 538d 253f e12a 2340 0dc5 b73f
000000e0: fae8 fe3f f141 1040 d8a7 4040 9d94 1b40
000000f0: 6086 13be 045b 45c0 22b6 71bf e568 4a40
00000100: dae6 d0bd f0d9 3cbe c7a8 0b3e 095f 5bbe
00000110: dccf 9fbe bbb5 d03e a7a4 a13e 2833 8d3e
00000120: 0de7 e8bf 4761 a53f 7922 ae40 4a8b b53f
00000130: 6ca2 8ebf 1519 2f40 092f 15c0 e6e7 2ac0
00000140: 08e5 0940 0be5 893f d08b 1ec0 d76b 42c0
00000150: 8073 8240 2be6 57bf cfc9 c93f 533e 9a3e
00000160: b521 1f3f 69b2 8d40 3bc9 0a40 ebd3 90bf
00000170: f4ea 5240 2b02 943f 83b3 8540 715d 1f40
00000180: 57c5 eabf 3b36 a8c0 b38e bf3e 553a b13f
00000190: 5da2 7ebf 59bd 60bf 7452 d03f f8f7 9dc0
000001a0: 6e65 ca3e fb1b be3e 4a85 063f e6fb 20be
000001b0: 80e0 12bf 3b6a d3be cb5a 9b3d 4682 3dbf
000001c0: d5e6 a43d 82fa 7f3e 1da7 3bbe 4b2d cbbc
000001d0: 08f7 fb3d ece4 12be 8c07 4cbe 535a 2cbe
000001e0: 4df0 2fc0 4683 193f 6a27 9bc0 eb98 c9bf
000001f0: e766 4bc0 723f a5be 5be6 b2be fd83 cf3e

feature_extractor.block_1.rep.2.weight f4 [16]
3.758927 1.7482162 1.6676979 2.9549165 2.37677 1.6624738 1.8819374 -2.1238246
0.005963313 2.821273 2.9070823 2.024588 1.8848108 0.032848287 -0.004520753 3.164821
00000000: 4392 7040 8cc5 df3f 2077 d53f 5a1d 3d40
00000010: 001d 1840 f1cb d43f 53e3 f03f beec 07c0
00000020: e567 c33b bd8f 3440 a30d 3a40 da92 0140
00000030: 7b41 f13f ed8b 063d d322 94bb 6d8c 4a40

feature_extractor.block_1.rep.2.bias f4 [16]
2.7853525 4.0257077 3.3019495 1.5055434 -2.0659447 1.3058513 3.1422398 -2.6430776
-0.115118906 2.2408235 3.6059966 -0.17073025 0.8426001 -0.45480806 -0.031669598 -1.334752
00000000: 3743 3240 99d2 8040 2453 5340 a5b5 c03f
00000010: 7038 04c0 2326 a73f 751a 4940 2f28 29c0
00000020: 76c3 ebbd a769 0f40 a6c8 6640 e9d3 2ebe
00000030: a4b4 573f 9adc e8be fbb7 01bd 27d9 aabf

feature_extractor.block_1.rep.2.running_mean f4 [16]
-59.197582 26.811438 20.064003 18.58807 -31.360306 -6.504633 144.32271 11.944936
-18.987806 -147.18605 92.826935 -37.624832 -36.742065 -4.9751244 11.949275 71.61185
00000000: 53ca 6cc2 d37d d641 1483 a041 5eb4 9441
00000010: e8e1 fac1 f425 d0c0 9d52 1043 751e 3f41
00000020: 07e7 97c1 a12f 13c3 64a7 b942 d47f 16c2
00000030: e0f7 12c2 3834 9fc0 3b30 3f41 4439 8f42

feature_extractor.block_1.rep.2.running_var f4 [16]
7222.8706 3197.5535 6325.8706 6201.151 6585.3994 7799.304 17163.328 7559.1406
46.2414 12465.4 6191.715 6708.9585 4075.8076 166.77673 30.907671 14138.664
00000000: f7b6 e145 dbd8 4745 f7ae c545 35c9 c145
00000010: 32cb cd45 6fba f345 a816 8646 2039 ec45
00000020: 32f7 3842 9ac5 4246 b87d c145 aba7 d145
00000030: ecbc 7e45 d8c6 2643 e942 f741 a8ea 5c46

feature_extractor.block_1.rep.4.conv1.weight f4 [16, 1, 3, 3]
-1.0410192 1.5824709 1.4161242 -0.035249706 -0.6422624 4.360764 -1.3393255 -7.142233
-2.5717747 2.3535986 -3.9584327 -2.3482087 0.18560559 -0.4856293 -2.3011723 0.82988137
-0.9878727 -4.4892 3.5678647 1.9960593 -1.2896192 1.8552442 0.60660654 1.1962305
0.7655002 -4.0477347 -4.1703887 0.976604 1.0077908 1.3864572 2.247036 -2.697494
-4.8437214 0.2707683 3.8044467 1.1207997 -1.0432833 2.626756 3.3634343 -3.127407
-2.7910903 -2.639964 -2.8044016 -1.2440319 -1.3367136 -1.826641 -2.6375024 -1.3671718
-0.8984195 -2.4281938 -1.3345506 0.22623529 -0.25733882 -2.078433 3.9840398 -1.0705873
-1.1318096 1.8215907 2.0787714 -2.1609867 1.5154353 3.328278 -2.2683415 5.09156
2.162205 -4.6127615 -2.3694985 3.5195184 -1.2643414 0.93970495 1.3881526 0.7639658
0.039874833 0.1235878 -0.1423907 -0.19124763 -0.039689012 -0.12683158 -0.13215615 0.16543432
-0.260537 -3.5741096 -1.758687 -0.2642626 -2.1070263 0.9079066 -1.2777295 -0.41483954
2.7848532 5.09993 -3.1737463 0.92443854 -3.392497 -0.01573238 -2.9198003 4.137526
3.745286 -0.08437961 0.555952 -3.2077866 -0.97181505 -0.118119225 -0.2709591 1.8548106
0.17042847 0.5616093 3.7437513 2.8730373 1.8491374 1.3560739 2.729732 1.3969859
-0.9702802 -0.3175545 -1.3670803 -2.602849 -3.1695483 -0.21207076 0.2887284 0.04472257
-0.3307701 -0.28900096 0.08378552 -0.32664624 0.047264773 0.37743005 0.16524102 0.28598198
0.017387988 -0.14004369 0.16207388 -0.25046974 -0.16726144 0.04583531 -0.11293303 0.775095
1.344057 0.5087867 2.1180432 2.6230989 1.6477468 3.3505023 2.9000375 4.7510104
00000000: 1e40 85bf 688e ca3f 8f43 b53f ff61 10bd
00000010: 4f6b 24bf 618b 8b40 056f abbf 2c8d e4c0
00000020: f597 24c0 5ca1 1640 f656 7dc0 0d49 16c0
00000030: 640f 3e3e 67a4 f8be 6846 13c0 1b73 543f
00000040: 3ae5 7cbf 87a7 8fc0 e557 6440 df7e ff3f
00000050: 3e12 a5bf a478 ed3f 914a 1b3f 151e 993f
00000060: d2f7 433f 0b87 81c0 d373 85c0 b802 7a3f
00000070: 4aff 803f 6e77 b13f 70cf 0f40 bea3 2cc0
00000080: c4ff 9ac0 25a2 8a3e 0e7c 7340 5d76 8f3f
00000090: 4f8a 85bf c51c 2840 8242 5740 7027 48c0
000000a0: 39a1 32c0 2cf5 28c0 517b 33c0 703c 9fbf
000000b0: 6e19 abbf 5fcf e9bf d7cc 28c0 7cff aebf
000000c0: d2fe 65bf 8767 1bc0 8ed2 aabf 39aa 673e
000000d0: eac1 83be 0c05 05c0 82fa 7e40 0109 89bf
000000e0: 23df 90bf e229 e93f 970a 0540 9b4d 0ac0
000000f0: c9f9 c13f 8202 5540 822c 11c0 0fee a240
00000100: 9161 0a40 be9b 93c0 dda5 17c0 ca3f 6140
00000110: f0d5 a1bf 8190 703f fcae b13f 4393 433f
00000120: cb53 233d 9a1b fd3d dece 11be 6bd6 43be
00000130: f290 22bd 23e0 01be f153 07be 9d67 293e
00000140: 1b65 85be 36be 64c0 a81c e1bf 6d4d 87be
00000150: 85d9 06c0 916c 683f a48c a3bf d965 d4be
00000160: 093b 3240 a032 a340 a91e 4bc0 01a8 6c3f
00000170: ac1e 59c0 31e1 80bc 02de 3ac0 9d66 8440
00000180: c4b2 6f40 38cf acbd df52 0e3f 604c 4dc0
00000190: dfc8 78bf 7ee8 f1bd 27bb 8abe 6f6a ed3f
000001a0: cd84 2e3e a1c5 0f3f 9f99 6f40 d8df 3740
000001b0: 89b0 ec3f d493 ad3f eeb3 2e40 6fd0 b23f
000001c0: 4864 78bf 8196 a2be 7dfc aebf 1495 26c0
000001d0: e1d9 4ac0 1429 59be 35d4 933e 032f 373d
000001e0: b35a a9be eff7 93be be97 ab3d 2d3e a7be
000001f0: b598 413d 833e c13e f134 293e 3b6c 923e
00000200: 4171 8e3c 9d67 0fbe b2f6 253e 923d 80be
00000210: 9546 2bbe cebd 3b3d 6f49 e7bd a06c 463f
00000220: 0f0a ac3f d83f 023f 058e 0740 dae0 2740
00000230: 5ee9 d23f a16e 5640 379a 3940 4708 9840

feature_extractor.block_1.rep.4.pointwise.weight f4 [16, 16, 1, 1]
-2.2821271 -1.9227394 2.327668 -0.20977503 4.1873436 -0.3735763 -0.37685284 -1.1541517
-0.17035486 2.3194132 -3.9122214 -0.68126684 -4.6684723 0.03530836 0.03359215 0.30192304
6.3315835 0.15105854 0.40301946 -4.339148 1.1185042 -0.961012 1.1539708 -1.4140381
0.07918127 -3.1445193 -2.803054 0.20724304 -1.2505882 0.3129422 0.043492723 0.035119634
-2.963139 -2.0883095 -0.7608933 0.2478174 4.824357 0.33678836 -0.31844786 -2.3166568
-0.05574919 3.0344396 -2.8839953 -4.159432 -4.2180667 0.11060246 0.08085967 -3.3196099
2.9419193 -1.8172727 -0.9601341 -5.6591034 2.569992 -2.1211145 1.8416781 -2.4087503
0.26337942 0.6626207 2.0292587 3.4308593 1.5160898 0.04364852 0.22958502 0.161907
1.34523 4.58626 -1.5875522 0.72046655 -3.9618611 1.6781363 5.27114 4.9834123
0.12744555 1.7806427 -0.49517846 1.9213787 1.9579415 0.18433706 -0.01012435 -2.8390427
1.1672469 -0.91590333 -5.3629527 1.1689094 0.052779585 3.1191862 0.521662 -0.44831118
0.113404125 -5.5719104 3.4558654 -0.5711595 -0.2866786 0.26859418 -0.15649569 0.513868
3.5862324 -1.0939714 -6.5533295 -1.7684971 3.999902 0.60148805 -0.35634086 -2.179226
-0.001472789 -1.6327578 -1.9909937 -3.0822203 1.7234626 -0.35832208 0.16566204 -0.9710328
2.3889725 1.9979275 1.7659456 -0.3796586 0.91475064 1.8831024 2.8521216 5.117568
-0.17602234 1.4457572 -0.10527642 1.8104057 -2.5750625 0.16578168 -0.19860065 4.745546
-2.2281766 2.0395377 2.1410835 1.1019611 -2.2098968 1.3575711 -1.6977462 3.4154875
-0.08850156 2.977365 6.092 -0.2978928 -0.040859092 -0.045565933 -0.08310636 -0.33943847
-3.829992 0.097529694 4.560208 4.148041 -2.21317 -1.2114642 1.4778639 1.2888148
0.195684 2.6164525 -2.9678338 1.5327358 1.3960032 0.009366628 0.04793972 0.21665749
2.5439394 -2.3779063 -0.46132594 -1.6333238 -5.137839 -2.081024 2.1293206 1.2094694
0.29060528 -1.5220708 -1.290091 -3.5703523 2.3206565 0.93181515 -0.022334011 2.9621181
0.1704809 2.6260343 1.4464638 4.7614694 -2.7039092 -0.8537215 1.190915 0.21541043
-0.0940906 2.066003 4.736013 2.6081913 0.8513743 -0.04194091 0.064924836 0.9570155
-2.185602 -4.5888047 -0.49473724 -0.6952448 -1.0558393 -1.0413382 -7.344064 5.101962
0.17912476 -2.6433651 0.96489555 -0.37865415 -1.3008802 -0.08764906 0.13776438 2.3140254
-2.1440177 -0.5913429 1.5099636 0.15798077 1.0183225 2.993759 -6.606606 -1.5720149
0.23487648 -1.5838679 -0.40207493 2.6199827 4.392312 0.21185863 -0.017565493 0.74975723
2.2939374 5.7150855 -0.4223484 0.72381485 2.6116505 1.4803623 4.2612534 -2.981723
-0.20412149 1.522146 -4.935684 -0.33076394 -0.25305736 -0.049386505 -0.12567334 -2.325168
0.92039114 -0.7604455 -0.7418996 -0.7939644 -0.90103924 -4.7280636 1.323478 -2.9889402
0.065580085 -0.031262163 0.8504321 -0.2451607 -0.3663821 0.16870892 0.11232115 7.3152585
00000000: 5f0e 12c0 531c f6bf 83f8 1440 44cf 56be
00000010: b8fe 8540 6545 bfbe dbf2 c0be 3ebb 93bf
00000020: 8171 2ebe 4471 1440 d661 7ac0 8167 2ebf
00000030: 2064 95c0 809f 103d ec97 093d a895 9a3e
00000040: 559c ca40 17af 1a3e 9158 ce3e 4dda 8ac0
00000050: 252b 8f3f e204 76bf 51b5 933f 33ff b4bf
00000060: ca29 a23d ce3f 49c0 3d65 33c0 8537 543e
00000070: 4613 a0bf f639 a03e 6d25 323d 9bd9 0f3d
00000080: 12a4 3dc0 dda6 05c0 e7c9 42bf d8c3 7d3e
00000090: 2261 9a40 866f ac3e 990b a3be 1b44 14c0
000000a0: 4359 64bd 4234 4240 6193 38c0 111a 85c0
000000b0: 67fa 86c0 8b83 e23d c199 a53d 7d74 54c0
000000c0: 6848 3c40 649c e8bf 59cb 75bf 6017 b5c0
000000d0: c07a 2440 57c0 07c0 1cbc eb3f f728 1ac0
000000e0: abd9 863e 83a1 293f 60df 0140 3393 5b40
000000f0: 3b0f c23f cac8 323d 5618 6b3e f3ca 253e
00000100: 7f30 ac3f a4c2 9240 e934 cbbf 7f70 383f
00000110: 228f 7dc0 2ccd d63f 2ead a840 1d78 9f40
00000120: 1681 023e 1aec e33f 0888 fdbe bdef f53f
00000130: d49d fa3f dbc2 3c3e 9ae0 25bc e0b2 35c0
00000140: 5968 953f a478 6abf 4f9d abc0 d39e 953f
00000150: 682f 583d bfa0 4740 a48b 053f 0b89 e5be
00000160: 6c40 e83d 174d b2c0 e62c 5d40 8237 12bf
00000170: 8ac7 92be 2d85 893e 6840 20be da8c 033f
00000180: d584 6540 4107 8cbf e0b4 d1c0 1d5e e2bf
00000190: 65fe 7f40 1ffb 193f 4f72 b6be 7078 0bc0
000001a0: 990a c1ba 35fe d0bf e2d8 febf 1943 45c0
000001b0: 6c9a dc3f fe75 b7be 4fa3 293e 9b95 78bf
000001c0: ede4 1840 17bc ff3f 810a e23f 9d62 c2be
000001d0: 192d 6a3f 8009 f13f 2989 3640 1ec3 a340
000001e0: 333f 34be 920e b93f 2a9b d7bd 60bb e73f
000001f0: d3cd 24c0 acc2 293e f85d 4bbe 83db 9740
00000200: 729a 0ec0 c987 0240 8307 0940 100d 8d3f
00000210: f36e 0dc0 e4c4 ad3f bf4f d9bf 5997 5a40
00000220: 4e40 b5bd 268d 3e40 aaf1 c240 6885 98be
00000230: dd5b 27bd 58a3 3abd ab33 aabd e1ca adbe
00000240: 971e 75c0 a6bd c73d 39ed 9140 c0bc 8440
00000250: 94a4 0dc0 4211 9bbf a52a bd3f e2f7 a43f
00000260: 6361 483e f573 2740 fdf0 3dc0 b030 c43f
00000270: 3cb0 b23f 7c76 193c 715c 443d 76db 5d3e
00000280: e7cf 2240 9e2f 18c0 ea32 ecbe c110 d1bf
00000290: 2d69 a4c0 7f2f 05c0 ca46 0840 e5cf 9a3f
000002a0: 37ca 943e 37d3 c2bf b421 a5bf a780 64c0
000002b0: a385 1440 708b 6e3f d1f5 b6bc 5893 3d40
000002c0: 8c92 2e3e f210 2840 ba25 b93f f55d 9840
000002d0: d90c 2dc0 7e8d 5abf e76f 983f 8d94 5c3e
000002e0: 93b2 c0bd 6539 0440 6b8d 9740 9bec 2640
000002f0: abf3 593f 3bca 2bbd 50f7 843d f8fe 743f
00000300: e7e0 0bc0 7dd7 92c0 334e fdbe 90fb 31bf
00000310: be25 87bf 924a 85bf 9302 ebc0 4643 a340
00000320: 7b6c 373e e52c 29c0 6503 773f f5de c1be
00000330: 3e83 a6bf 5a81 b3bd 1b12 0d3e fe18 1440
00000340: 9637 09c0 4062 17bf 7d46 c13f b6c5 213e
00000350: 6458 823f bf99 3f40 5169 d3c0 c937 c9bf
00000360: 7683 703e 2fbc cabf c4dc cdbe ccad 2740
00000370: d28d 8c40 78f1 583e 82e5 8fbc 17f0 3f3f
00000380: dfcf 1240 fbe1 b640 0d3e d8be ee4b 393f
00000390: 4825 2740 837c bd3f 305c 8840 8dd4 3ec0
000003a0: 3905 51be aed5 c23f 20f1 9dc0 e459 a9be
000003b0: bc90 81be 8149 4abd 83b0 00be 8dcf 14c0
000003c0: c19e 6b3f 8eac 42bf 22ed 3dbf 4041 4bbf
000003d0: 82aa 66bf 4c4c 97c0 ba67 a93f cc4a 3fc0
000003e0: da4e 863d c10c 00bd ebb5 593f 680b 7bbe
000003f0: 6f96 bbbe 08c2 2c3e a208 e63d 9916 ea40

feature_extractor.block_1.rep.5.weight f4 [16]
-0.5940943 2.7852635 2.0284326 2.9166574 -1.1718526 4.023994 2.481473 1.7909901
2.927216 3.181768 1.6678579 2.5745 4.183725 2.2703447 3.5148914 2.6064718
00000000: 9016 18bf c241 3240 d7d1 0140 84aa 3a40
00000010: 44ff 95bf 8fc4 8040 74d0 1e40 2a3f e53f
00000020: 8257 3b40 16a2 4b40 5e7c d53f 9cc4 2440
00000030: 13e1 8540 544d 1140 fbf3 6040 6fd0 2640

feature_extractor.block_1.rep.5.bias f4 [16]
3.9086554 0.7983633 0.6881722 -0.16383561 2.051264 -1.4378316 1.0069714 -0.96887934
1.6703798 -2.5654914 1.3461256 -1.3489469 -3.697189 2.0849125 -0.5957241 0.49970165
00000000: 6927 7a40 8a61 4c3f 0e2c 303f 86c4 27be
00000010: e947 0340 de0a b8bf 70e4 803f 7a08 78bf
00000020: 01cf d53f 0331 24c0 d84d ac3f 4baa acbf
00000030: bf9e 6cc0 356f 0540 6081 18bf e5d8 ff3e

feature_extractor.block_1.rep.5.running_mean f4 [16]
123.471565 -99.03422 67.94541 65.713875 -183.07701 -13.002461 -84.23521 -41.727364
-106.00914 156.01564 171.78526 -26.47783 163.8256 -100.665565 -278.00455 221.74399
00000000: 71f1 f642 8511 c6c2 0de4 8742 816d 8342
00000010: b713 37c3 150a 50c1 6d78 a8c2 d2e8 26c2
00000020: ae04 d4c2 0104 1c43 07c9 2b43 99d2 d3c1
00000030: 5bd3 2343 c554 c9c2 9500 8bc3 76be 5d43

feature_extractor.block_1.rep.5.running_var f4 [16]
27763.389 73608.02 37781.7 33457.418 34003.594 35627.105 43586.402 27432.28
26613.814 59899.77 37865.54 20018.994 40889.426 28433.268 40125.688 38710.652
00000000: c7e6 d846 03c4 8f47 b395 1347 6bb1 0247
00000010: 98d3 0447 1b2b 0b47 6742 2a47 8f50 d646
00000020: a1eb cf46 c5fb 6947 8ae9 1347 fd65 9c46
00000030: 6db9 1f47 8922 de46 b0bd 1c47 a736 1747

feature_extractor.block_2.skip.weight f4 [32, 16, 1, 1]
4.2396755 -0.07780879 0.64291143 1.0496006 0.9779056 -1.2725273 0.73901 -0.18321127
-1.0957302 -0.36866903 1.9472001 0.7310503 -0.7741221 -3.766676 -0.021076923 5.622905
0.68119156 -2.0183458 -0.9360297 -0.65889704 1.5170907 -2.627357 -1.9327973 0.5095272
-1.5418413 -3.9316142 0.50170505 -1.4024111 7.2476735 1.6260623 5.1934857 -1.1250997
-1.013303 0.14029662 3.1568956 -0.5156278 2.4951181 2.0149026 2.6055555 3.908681
6.303049 -1.2089319 1.2520406 3.7551107 1.07897 -0.1854004 3.3697982 -1.6808891
0.066609964 -0.2822743 0.80009896 0.26235294 -2.8629472 -1.7939438 -0.95550716 -3.984489
-2.9053352 -1.5942189 -1.5144448 -2.3272452 -3.9170876 0.78496957 -7.1632633 -2.820646
-0.27698606 -1.767866 -3.3647096 -1.6096555 -2.9614978 0.3609065 -0.666922 -3.123035
-0.2585569 -4.11325 -1.247588 -2.9322603 -3.2953365 0.079528935 -2.152267 -5.236115
-1.5620658 -4.6038175 0.041561875 -2.6012168 0.13126963 -1.0901027 -3.499812 0.78258073
0.9386601 0.22769131 -2.1925685 -0.5814192 4.4085164 2.3306773 0.8192886 -2.1835005
0.03186256 0.5782826 0.57986355 2.249759 0.9889336 -3.6050427 -0.26356772 0.56064945
1.2049471 -3.0790343 0.1429746 -0.5884415 6.9604545 1.8570937 6.767696 -0.9141725
-0.21776722 1.2875813 5.9077682 2.2390485 -0.17321384 -0.11184646 1.7186276 -1.6720214
0.3657819 1.7469174 0.2874741 -4.723372 -5.8967967 -1.4477638 -2.360626 -2.3049035
2.4360492 -4.372226 -0.14293572 -0.66089994 1.9511462 -4.9291387 -4.9437323 -1.7646356
-1.6443858 -1.3938738 2.0139432 -1.3184203 -0.11502112 0.33198652 -3.4373403 0.585304
-2.343909 0.07661107 0.7372696 -2.0937538 5.547225 -1.6122977 -1.5729983 5.2363997
-0.74640167 0.11149575 0.9723879 -1.0873039 1.2285719 -1.9074248 3.4934301 3.2091906
2.611958 0.46523818 2.8971233 4.227177 -1.149655 3.5729706 1.4770327 -2.1571333
0.40020514 3.2057722 2.3125434 1.3883785 -2.203386 2.022681 -0.69987136 -0.945668
1.3120338 -0.48259944 -1.166331 -0.84252304 1.7777675 -2.1886632 -2.1868958 -0.03238026
-4.4198737 -2.541388 0.6139929 -0.8953508 -4.6955333 -4.313449 -2.983076 1.5408194
9.185051 -0.6234169 -0.02578421 3.140154 2.5004704 -2.9077654 -1.2347243 -1.6095914
-1.5416663 0.3594791 2.8777277 -0.5799742 -0.1882301 1.2597955 2.3189101 -0.7155239
-0.25647044 1.2635211 0.72486234 1.5744547 -2.2080555 -0.34149146 3.6639009 -1.6644448
0.35709724 -0.69231236 -3.5405037 -2.6472733 0.35927847 -6.015102 1.5550232 -1.4510419
-0.82718056 1.0334824 1.1403217 4.371437 1.5830815 0.72389215 -1.17249 1.4172746
0.6701036 5.1040764 2.8344436 2.5665607 1.4275122 3.743681 1.5482122 -0.48891142
-0.29750663 -1.7618128 -1.7898011 -1.4695201 -0.12493633 -2.0299058 -2.5948763 3.1912587
-2.6065035 -3.253729 -1.4199594 -3.4322073 -0.10172497 -3.230021 3.5733638 2.7726464
00000000: 6cab 8740 375a 9fbd d895 243f 5059 863f
00000010: 0558 7a3f 2de2 a2bf c22f 3d3f bc9b 3bbe
00000020: e340 8cbf 30c2 bcbe da3d f93f 1d26 3b3f
00000030: de2c 46bf 3811 71c0 83a9 acbc d6ee b340
00000040: 9262 2e3f 942c 01c0 a49f 6fbf 7aad 28bf
00000050: 0730 c23f 9e26 28c0 e765 f7bf 6070 023f
00000060: 0e5b c5bf 919f 7bc0 be6f 003f 3582 b3bf
00000070: f1ec e740 cf22 d03f 0931 a640 4403 90bf
00000080: eab3 81bf eba9 0f3e 940a 4a40 2f00 04bf
00000090: 04b0 1f40 2af4 0040 6cc1 2640 d427 7a40
000000a0: 94b2 c940 48be 9abf de42 a03f bc53 7040
000000b0: b01b 8a3f 9ad9 3dbe c6aa 5740 6027 d7bf
000000c0: ce6a 883d 4286 90be 49d3 4c3f 2053 863e
000000d0: 873a 37c0 f39f e5bf 1e9c 74bf de01 7fc0
000000e0: 03f1 39c0 5d0f ccbf 54d9 c1bf 96f1 14c0
000000f0: 90b1 7ac0 c4f3 483f 7439 e5c0 7785 34c0
00000100: 1ed1 8dbe 6f49 e2bf 6757 57c0 3109 cebf
00000110: 2e89 3dc0 bdc8 b83e 66bb 2abf cedf 47c0
00000120: 9261 84be be9f 83c0 f7b0 9fbf 27aa 3bc0
00000130: cbe6 52c0 11e0 a23d bebe 09c0 418e a7c0
00000140: c6f1 c7bf 7952 93c0 c93c 2a3d 567a 26c0
00000150: 8c6b 063e 7c88 8bbf ebfc 5fc0 3657 483f
00000160: 074c 703f e927 693e 0b53 0cc0 e4d7 14bf
00000170: 9112 8d40 d129 1540 e6bc 513f 79be 0bc0
00000180: 5182 023d 540a 143f f071 143f 0dfc 0f40
00000190: c12a 7d3f 05b9 66c0 59f2 86be b986 0f3f
000001a0: b53b 9a3f e60e 45c0 ef67 123e 1aa4 16bf
000001b0: 0bbc de40 3fb5 ed3f f790 d840 3507 6abf
000001c0: 5ffe 5ebe 77cf a43f 700c bd40 924c 0f40
000001d0: f85e 31be c20f e5bd fdfb db3f cc04 d6bf
000001e0: c447 bb3e fd9a df3f ce2f 933e dd25 97c0
000001f0: 8fb2 bcc0 5350 b9bf 7f14 17c0 8a83 13c0
00000200: 3be8 1b40 47e9 8bc0 be5d 12be bd30 29bf
00000210: 29bf f93f 81bb 9dc0 0e33 9ec0 94df e1bf
00000220: 3c7b d2bf 756a b2bf 72e4 0040 ffc1 a8bf
00000230: 3190 ebbd 23fa a93e 62fd 5bc0 7cd6 153f
00000240: 9b02 16c0 44e6 9c3d b3bd 3c3f 1000 06c0
00000250: de82 b140 c55f cebf 0258 c9bf 9690 a740
00000260: 2e14 3fbf e257 e43d 6aee 783f c62c 8bbf
00000270: d841 9d3f 7f26 f4bf 5c94 5f40 6163 4d40
00000280: 522a 2740 b333 ee3e 786a 3940 0945 8740
00000290: e527 93bf 8dab 6440 680f bd3f 790e 0ac0
000002a0: b0e7 cc3e 5f2b 4d40 b600 1440 63b6 b13f
000002b0: 4704 0dc0 9b73 0140 c52a 33bf 4c17 72bf
000002c0: b9f0 a73f 4617 f7be 564a 95bf 97af 57bf
000002d0: e38d e33f 0f13 0cc0 1af6 0bc0 2aa1 04bd
000002e0: 9b6f 8dc0 1aa6 22c0 a42e 1d3f b635 65bf
000002f0: cf41 96c0 c607 8ac0 b8ea 3ec0 9239 c53f
00000300: f8f5 1241 4098 1fbf 6839 d3bc 48f8 4840
00000310: b507 2040 d418 3ac0 720b 9ebf 1707 cebf
00000320: 5255 c5bf a50d b83e b12c 3840 3079 14bf
00000330: 64bf 40be fb40 a13f 0669 1440 932c 37bf
00000340: 1850 83be 0fbb a13f 9490 393f bb87 c93f
00000350: c850 0dc0 f8d7 aebe 5a7d 6a40 870c d5bf
00000360: 73d5 b63e 623b 31bf 9d97 62c0 ed6c 29c0
00000370: 59f3 b73e b77b c0c0 000b c73f bebb b9bf
00000380: 1bc2 53bf 2749 843f 10f6 913f d0e2 8b40
00000390: 6aa2 ca3f ff50 393f 2714 96bf 4169 b53f
000003a0: e98b 2b3f 9854 a340 8667 3540 8842 2440
000003b0: b8b8 b63f 7898 6f40 d12b c63f 9952 fabe
000003c0: ca52 98be 1583 e1bf 3418 e5bf 3c19 bcbf
000003d0: 9ede ffbd fae9 01c0 7412 26c0 953d 4c40
000003e0: f4d0 26c0 193d 50c0 3bc1 b5bf 49a9 5bc0
000003f0: 2e55 d0bd aab8 4ec0 feb1 6440 0a73 3140

feature_extractor.block_2.skipbn.weight f4 [32]
2.3424785 0.20770736 3.3965778 4.183409 3.675939 0.25082874 2.1907363 0.9588956
3.6080937 -1.0915148 3.3711886 6.308519 2.8530748 1.1097778 4.1733036 0.90788466
-0.6455272 3.2371023 3.446654 -0.17417525 0.93957627 0.8222979 2.501235 0.8822338
1.5852188 1.5865166 1.5985838 -0.016255956 2.9185226 0.30167413 3.4948199 0.2843063
00000000: 2beb 1540 3db1 543e 8861 5940 7dde 8540
00000010: 9642 6b40 a06c 803e 0635 0c40 2f7a 753f
00000020: 02eb 6640 c2b6 8bbf 8ec1 5740 63df c940
00000030: c798 3640 330d 8e3f b48b 8540 216b 683f
00000040: 4541 25bf af2c 4f40 fb95 5c40 ff5a 32be
00000050: 1288 703f 1d82 523f 3c14 2040 13da 613f
00000060: 73e8 ca3f fa12 cb3f 659e cc3f 362b 85bc
00000070: 13c9 3a40 0875 9a3e 21ab 5f40 9890 913e

feature_extractor.block_2.skipbn.bias f4 [32]
1.5338559 -0.32235503 0.69714606 0.094038226 0.93272424 -1.306069 0.43170026 0.42147052
-1.5485191 -0.8148447 -0.9502478 0.6702947 -0.8127445 0.84632427 2.0154119 1.0290139
-0.60423136 -1.0129471 -1.7223403 -1.0954107 -1.0038068 1.0127273 -0.33812007 -3.7478933
-2.4330618 1.0807709 -3.0001016 -1.0654969 -1.7058418 0.19125345 -1.2864739 -3.3567734
00000000: 6455 c43f b80b a5be 2a78 323f 1d97 c03d
00000010: 04c7 6e3f 452d a7bf d107 dd3e fcca d73e
00000020: e035 c6bf aa99 50bf 7143 73bf 6f98 2b3f
00000030: 0610 50bf b5a8 583f 82fc 0040 bab6 833f
00000040: e8ae 1abf 40a8 81bf a675 dcbf 6b36 8cbf
00000050: be7c 80bf 0ca1 813f 131e adbe 7cdd 6fc0
00000060: 49b7 1bc0 b356 8a3f aa01 40c0 3462 88bf
00000070: 0659 dabf f2d7 433e 2dab a4bf 60d5 56c0

feature_extractor.block_2.skipbn.running_mean f4 [32]
41.974113 -18.554777 75.88505 -44.294407 -47.750732 -63.080833 24.879122 35.420803
-20.527824 -7.314293 72.60252 -36.991505 98.99465 -35.269554 42.74129 -59.651527
-14.755233 -72.886856 42.642937 9.662087 -49.13553 -31.145855 -22.821262 75.157364
12.893636 -57.233425 41.375645 1.0259616 -39.622173 18.904602 -97.168076 57.011887
00000000: 7ee5 2742 2f70 94c1 25c5 9742 792d 31c2
00000010: c000 3fc2 c652 7cc2 7108 c741 e7ae 0d42
00000020: fc38 a4c1 b00e eac0 7e34 9142 4df7 13c2
00000030: 43fd c542 0614 0dc2 15f7 2a42 2a9b 6ec2
00000040: 6f15 6cc1 12c6 91c2 5e92 2a42 e997 1a41
00000050: c88a 44c2 b62a f9c1 f291 b6c1 9250 9642
00000060: 554c 4e41 07ef 64c2 a980 2542 b652 833f
00000070: 1b7d 1ec2 a03c 9741 0e56 c2c2 2c0c 6442

feature_extractor.block_2.skipbn.running_var f4 [32]
2451.3015 1342.5841 4037.1206 5006.948 4332.9062 1420.8591 1583.4602 1334.478
3468.386 3965.8342 3064.0212 4339.4453 5867.683 934.12 3206.4636 2697.1536
2537.0085 3970.2073 4047.721 3079.2783 3488.4453 2746.9988 3732.939 1826.466
5041.869 3231.3523 4196.124 1793.6559 3088.7017 2078.5168 2667.7354 1910.336
00000000: d334 1945 b1d2 a744 ee51 7c45 9677 9c45
00000010: 4067 8745 7e9b b144 baee c544 4ccf a644
00000020: 2dc6 5845 59dd 7745 5780 3f45 909b 8745
00000030: 775d b745 ae87 6944 6b67 4845 7592 2845
00000040: 2390 1e45 5123 7845 89fb 7c45 7474 4045
00000050: 2007 5a45 fbaf 2b45 064f 6945 e94e e444
00000060: f48e 9d45 a3f5 4945 fe20 8345 fd34 e044
00000070: 3a0b 4145 45e8 0145 c4bb 2645 c1ca ee44

feature_extractor.block_2.rep.1.conv1.weight f4 [16, 1, 3, 3]
0.1942898 3.9414544 4.8999662 -1.9290698 -0.83487153 2.0757627 -2.4572866 -2.9446259
-2.516472 1.8921387 -2.540289 -4.334582 1.7534795 1.4619881 -0.78697425 0.42634064
1.4522339 3.3290174 1.1404549 1.9497579 0.47572082 -0.5306264 0.8815023 3.2179594
-1.1802586 -3.7587767 -3.054976 1.5466481 4.164439 3.904883 -2.611911 -0.9873426
0.6576369 -0.82741016 -1.5266544 -2.4245725 4.770047 2.3701174 -0.35027075 0.1850884
-1.8719963 -4.5742292 -0.08180743 1.0034354 -0.8435932 2.7009735 5.7950387 4.5184293
-0.9083235 0.60170126 -1.2824677 0.5536181 0.77099496 -2.0692744 -1.0841776 -2.4304628
0.7320007 -0.034802403 -2.267721 1.6532581 -0.2506663 -1.6622223 -4.474479 -1.7946398
-3.7201905 -1.6665347 1.0564467 -1.9449786 -1.0478206 3.6797853 1.448378 1.1990893
-1.2698143 1.374465 2.9202292 -2.910042 -0.62143177 1.160811 -4.1216865 -0.8322396
-0.4183236 2.7660854 1.645056 -0.6431899 1.4781375 -0.2003014 0.10616309 1.0097783
-0.24943604 0.20507185 -4.157661 -2.1569564 0.17978245 -1.4088919 -1.8070185 1.1740295
2.060958 3.215678 3.1120934 0.422222 0.72025365 2.0042875 3.895909 2.1129289
2.4952757 -1.2716756 -0.8310082 -2.8403661 -1.2158422 -2.8132439 -2.220921 -0.2547356
0.29802027 -2.0393069 -0.21569616 1.1234109 -1.2662398 0.19352211 -5.289832 -3.9451497
2.8845286 2.0991175 -0.795704 0.91668946 2.1694133 2.5641599 1.1557734 -0.73017544
-1.8824605 0.97020364 0.55101454 -2.2986374 -1.0768354 -1.1950065 -0.22035757 1.4152161
-0.4912976 -2.7586486 0.06720092 -1.5992044 -2.5850341 2.4801722 2.933231 1.6635439
00000000: e8f3 463e ca40 7c40 86cc 9c40 c2eb f6bf
00000010: 24ba 55bf 4cd9 0440 2f44 1dc0 c074 3cc0
00000020: e10d 21c0 9a31 f23f 1894 22c0 e5b4 8ac0
00000030: 0472 e03f 6d22 bb3f 2577 49bf 5249 da3e
00000040: cde2 b93f 9f0e 5540 6dfa 913f ab91 f93f
00000050: ae91 f33e 22d7 07bf 22aa 613f 0cf3 4d40
00000060: b712 97bf cc8f 70c0 ba84 43c0 91f8 c53f
00000070: 1643 8540 9ae9 7940 8d29 27c0 7cc2 7cbf
00000080: e45a 283f 27d1 53bf 6969 c3bf 322c 1bc0
00000090: 3aa4 9840 01b0 1740 b056 b3be d087 3d3e
000000a0: 939d efbf 1660 92c0 a78a a7bd 9270 803f
000000b0: b9f5 57bf c0dc 2c40 f570 b940 f996 9040
000000c0: e487 68bf 1809 1a3f e727 a4bf eab9 0d3f
000000d0: ed5f 453f fe6e 04c0 55c6 8abf b48c 1bc0
000000e0: 6664 3b3f f78c 0ebd 5722 11c0 f69d d33f
000000f0: 5557 80be b3c3 d4bf ef2e 8fc0 c2b6 e5bf
00000100: 9a17 6ec0 0251 d5bf a539 873f 0ff5 f8bf
00000110: fc1e 86bf 9a81 6b40 7364 b93f c27b 993f
00000120: 4689 a2bf 78ee af3f 09e5 3a40 213e 3ac0
00000130: 2716 1fbf 7495 943f dbe4 83c0 a80d 55bf
00000140: 832e d6be 8b07 3140 3291 d23f 18a8 24bf
00000150: 9c33 bd3f cf1b 4dbe 096c d93d 6a40 813f
00000160: 296c 7fbe 5bfe 513e 8f0b 85c0 930b 0ac0
00000170: e418 383e 9256 b4bf 624c e7bf 9946 963f
00000180: bce6 0340 abcd 4d40 8a2c 4740 7b2d d83e
00000190: 8b62 383f 3f46 0040 9356 7940 3a3a 0740
000001a0: 99b2 1f40 44c6 a2bf f4bc 54bf 8fc8 35c0
000001b0: b8a0 9bbf 300c 34c0 9223 0ec0 b46c 82be
000001c0: 1d96 983e 0184 02c0 74df 5cbe eecb 8f3f
000001d0: 2514 a2bf a92a 463e 4e46 a9c0 557d 7cc0
000001e0: 1e9c 3840 f157 0640 42b3 4bbf 29ac 6a3f
000001f0: abd7 0a40 321b 2440 62f0 933f c7ec 3abf
00000200: 77f4 f0bf 445f 783f 4a0f 0d3f e01c 13c0
00000210: bed5 89bf f9f5 98bf 6aa5 61be cd25 b53f
00000220: 5c8b fbbe b38d 30c0 a3a0 893d bbb2 ccbf
00000230: 3371 25c0 24bb 1e40 0fba 3b40 02ef d43f
