models/multiple.pth (torch_old, 315917 bytes, 88 tensors)

feature_extractor.con2d_1.weight f4 [8, 3, 3, 3]
00000000: b01e 05be 25d4 b1bc c726 7d3d 3637 ccbc
00000010: 39ce 97bd c6cc b93d addb 3b3c 1cca 263e
00000020: ac7b d8bc 4493 903d 79ec 023e 08f7 44be
00000030: d539 15be 042e 92bd eb55 5ebe 64d8 fb3d
00000040: cfae 8c3d d1e1 17be a4f5 1c3e 862e 7f3a
00000050: 3674 3d3e 829c 35be 8db2 62bc d7c5 06be
00000060: 8cf2 03bc 8b10 49bd e9e7 193e 8441 98ba
00000070: e36f e4bc 8e7f 633e 13be 38be 381c 83bd
00000080: 7b14 703c c690 213d 647a d0bc 4409 893d
00000090: 2adf 563e f645 1f3e 3941 33bc 102c 013d
000000a0: ecd8 833d 792c f43d 4ca7 0cbe 248f 703d
000000b0: ae23 30be 0ecd b53d 91f6 013e 1429 c4bd
000000c0: fc53 a0bd 12ff 103d cd18 afbd 5e96 49be
000000d0: 38bd dd3c 99e2 0bbe 7186 33bd 7e10 2ebe
000000e0: 9de9 e3bd 3010 1fbd aae0 82bd 897d 903c
000000f0: 83da fdbd daaa 943d e4d9 a83d 6c01 20bd
00000100: ff3a a83d d335 df3d b9f2 6f3d cefa 41be
00000110: 643e 433e 9252 553d 389c aa3d fc4d 903d
00000120: 8421 663e f32f 713e fa58 933d bd85 763e
00000130: 1ed2 db3c 61a7 bbbd 943a cd3d bf99 68bd
00000140: 41ff 9a3d 8c58 08be 756b 2d3e 26a7 383e
00000150: 6459 f6bd 7d49 2fbe 8249 023e 224e 00be
00000160: 9015 31be 62bd 38be 6130 c1bd 9401 d8bb
00000170: 0abd a3bb 675c 233c ad30 74bc 962e 13be
00000180: 5cde 25be 581b 2b3e 7837 a6bc 43cb 983d
00000190: 9f15 f13d 13b8 32be 3308 56bd f73e 1e3e
000001a0: dcdc dc3d 4132 a2bd 6a4d e63d 3bea 233e
000001b0: 04bf 583e 9b1c ae3d 4539 503e fda5 b0bd
000001c0: c6a8 8ebd d5ef c43d 96ef 3c3e 937a 12bd
000001d0: 6b18 04be bf6b b5bd a828 ecbd 2c5b 12be
000001e0: 3879 91bd 71ac 76bd 4ec3 df3c 76ad d13d
000001f0: 7548 9b3d 5c8b 61be d2f0 d7bd e096 053e
00000200: 62e2 bdbd 7f3f 05be 800a 06be 0bfe f33d
00000210: 08c3 0dbe b347 0d3e 9a3c ac3d e325 653d
00000220: 44c6 423d d593 e73b 0e6d 633e 54b5 0fbe
00000230: ffaf c7bd f4dc a03d ff24 3c3e b8ad b9bd
00000240: e2a8 0dbe c35b 22be f266 f03c 2938 2f3e
00000250: 96ce 01bd 75d3 3ebe 3b59 a1bd 5b16 503e
00000260: 595e 89bd 08aa d43c e1bd f9bd 25da 333e
00000270: 5aa4 4a3e 6683 6c3b 8a58 d23d 1854 ecbd
00000280: 30e1 52bb 8168 55bd 2e0a cd3d d46a 853d
00000290: b697 333d 4a73 023e a34f b6bd bfea 50be
000002a0: 9a86 f3bd 2bdc 44bc 2ca0 d3bd b1dc c03d
000002b0: b004 d83c 6888 133e bd7b a4bc 06a7 963d
000002c0: c9c1 a6bd 4d84 26be 99a1 33be db7d 143e
000002d0: 9562 4cbd c127 03be 5596 063d 1922 b5bc
000002e0: 0c9a c4bd 52cd 173e 4e1a 05be 16df 9e3d
000002f0: 5546 13bc db0d b83d c85b b6bd e484 c8bd
00000300: a7e4 7fbd 076f 8abd b5fc 683c 316f 1fbd
00000310: d75f 38bd 6226 0fbe 597c 3a3e 3c7a e0bd
00000320: d69b a6bd 11d8 1d3e b073 1ebe c1b3 89be
00000330: 8a13 20bd 2674 a73d 19c3 96bb da7e 3cbd
00000340: 4c61 9cbc 447a c6bd 7034 09be 4ada 9cbd
00000350: 7687 24be decd 5ebd 992b ef3c 8e7e 973d
-0.12999988 -0.021707604 0.06180456 -0.02492867 -0.07412381 0.090722606 0.011465949 0.16288036
-0.026426159 0.07059339 0.1278552 -0.1923486 -0.14572842 -0.07137683 -0.21712463 0.122971326
0.068692796 -0.14832236 0.1532808 0.00097344106 0.18501362 -0.17735484 -0.013836515 -0.13161407
-0.008053433 -0.049088042 0.15029873 -0.0011616205 -0.027885383 0.22216627 -0.18041258 -0.06401867
0.01465332 0.039444707 -0.025448985 0.066912204 0.20983568 0.15554032 -0.010940843 0.031536162
0.06437859 0.11922545 -0.13735694 0.05873026 -0.1720111 0.08877002 0.12691714 -0.095781475
-0.07828519 0.035399504 -0.08549652 -0.19686267 0.027067766 -0.13660659 -0.043829385 -0.16998479
-0.111285426 -0.038833797 -0.063905075 0.017637985 -0.123951934 0.0725915 0.08244684 -0.039063856
0.082143776 0.10898938 0.058581088 -0.1894333 0.19066769 0.0520807 0.083305776 0.07046124
0.22473723 0.23553447 0.07194705 0.24074455 0.02683359 -0.09162784 0.100209385 -0.05678725
0.07568217 -0.13315028 0.16935523 0.18032512 -0.12028769 -0.17117877 0.12723354 -0.12529805
-0.17293382 -0.18040994 -0.09433056 -0.006591985 -0.0049969004 0.009970761 -0.014904183 -0.1437324
-0.16198105 0.1670965 -0.020290121 0.07460644 0.11771702 -0.17453031 -0.052253913 0.15453707
0.10784313 -0.079197414 0.11245234 0.1600732 0.21166617 0.0850155 0.20334347 -0.0862541
-0.06965785 0.09616057 0.1845077 -0.035761427 -0.1289994 -0.088584416 -0.11531192 -0.14292592
-0.07103199 -0.060223047 0.027314808 0.10238163 0.075821795 -0.22025818 -0.1054398 0.13045835
-0.09271695 -0.13012503 -0.13089943 0.11913689 -0.1384393 0.13796882 0.08409996 0.055944335
0.047552362 0.0070671835 0.2220957 -0.14034015 -0.097503655 0.078546435 0.18373488 -0.09066337
-0.13833955 -0.15855317 0.029345963 0.17111267 -0.031691156 -0.18635352 -0.078783475 0.20321028
-0.067074485 0.025959983 -0.1219442 0.17563684 0.19789258 0.0036089062 0.10270794 -0.11539477
-0.003217768 -0.052101616 0.10011707 0.065145165 0.043845855 0.12739292 -0.08901908 -0.20402049
-0.118909076 -0.012015383 -0.10333285 0.094170935 0.026369423 0.14407504 -0.020078534 0.07356076
-0.0814243 -0.16261406 -0.17542113 0.14501135 -0.049898703 -0.12808134 0.03285821 -0.022110986
-0.095996946 0.14824417 -0.12998316 0.07757394 -0.008988936 0.08987018 -0.08904225 -0.09790972
-0.06247392 -0.06759458 0.014220406 -0.0389244 -0.045013275 -0.13979486 0.18211497 -0.10960814
-0.08135192 0.15414454 -0.15473819 -0.26894954 -0.039081134 0.081764504 -0.004600894 -0.046019413
-0.019089364 -0.09691289 -0.1339891 -0.07658823 -0.16067299 -0.05439555 0.029195594 0.07397185

feature_extractor.bn_1.weight f4 [8]
00000000: 60eb 9c3e f355 b43e 4944 e83d c798 1c3f
00000010: a753 503f b9b3 223f 3d90 2b3f 4df1 883e
0.30648327 0.35221824 0.11341149 0.6117062 0.81377643 0.63555485 0.67016965 0.26746598

feature_extractor.bn_1.bias f4 [8]
00000000: dac3 183d fb63 0a3e 8ab1 aabc 8fac 213d
00000010: 703a af3d 5172 b63d 35d7 1c3e 17d0 aebc
0.037296154 0.13514702 -0.02083661 0.039471205 0.08556068 0.08908523 0.1531647 -0.02133946

feature_extractor.bn_1.running_mean f4 [8]
00000000: e263 8bbd dd59 bd3c bbc7 323e bcf9 0ebe
00000010: c01f c9bb 7bb3 b83d 448b eebd ecc7 c9be
-0.068061605 0.02311414 0.17459004 -0.13962454 -0.006137818 0.09018608 -0.116476566 -0.3941034

feature_extractor.bn_1.running_var f4 [8]
00000000: f612 053b dcb8 213b 3aaa a63c 767b cb3b
00000010: 95be 4a3b c8bd 273b a01b 893b 0036 223d
0.002030549 0.0024676835 0.020344842 0.006209786 0.003093635 0.0025595296 0.0041842014 0.03960228

feature_extractor.con2d_2.weight f4 [8, 8, 3, 3]
00000000: c0f7 53bd 5f0c 1cbd af65 313d d745 513c
00000010: 1281 debd e812 3bbd 8a63 043c a93a 05bd
00000020: 210e 743d eb37 1b3e 8d21 a83d afce b83d
00000030: f2d8 043e bc1e 6bbc da30 e83c d9a0 6b3d
00000040: 64ec 253e 0d66 ac3d 5bc3 543e 67ce 0b3e
00000050: ffa7 e43c a93e 353e 0f43 9fbc 5795 883d
00000060: 5d6a f93b 7a3e 293e 427a c03c cc88 b8bd
00000070: 472a 33bd 8b3d 833d b1c3 283d d0d1 d0bd
00000080: 620e a13d 022e 8f3d c700 93bd b588 9abc
00000090: 0a35 85bc 3ab7 ebbd 0acc 39bd 51bd c63d
000000a0: 9eed aabd d42c 973c bda2 853d 30df a8bd
000000b0: 092f 513d 7498 223d 16bc c23c 8d36 efbd
000000c0: d211 8a3d 82b9 333a b461 e4bd 2e8d 02bc
000000d0: 555f be3d 6f0f bebc 6d7c bcbd 76fe 303d
000000e0: 69ee 43bd 74dd 1dbe 6605 a9bd 1845 60bd
000000f0: 386a 8dbd b804 eebd 13d1 41be 0beb e5bd
00000100: 7175 afbd c878 8b3d c605 14be 2022 d8bc
00000110: 6142 b4bd d20d 7ebd 4263 c2bd 3f8f 96bc
00000120: 42d6 35bd 3c58 8b3c 0d1c 483d edc4 a0bc
00000130: c2c2 93bc 238f ad3d fd58 8f3d 6bdf 8b3d
00000140: 880b 1c3e 199b 5fbd 929d 90bd a298 87be
00000150: 8289 19be 74bf 2ebd ea89 92be 8ca7 2fbe
00000160: 03a5 47be a164 2cbd de95 da3d d91c ecbb
00000170: df51 323e 557b 533e 4f65 dd3d 87ca 533e
00000180: 9b42 253e 93b0 743e cb38 933d a978 fd3d
00000190: 9379 ce3d cc77 98bd 88a4 82bd 3bda 8b3d
000001a0: 78f5 cb3d 50fc 67bd 890d 1a3e c623 97bd
000001b0: f942 dabc f1c3 ddbd 149b 5e3d 137e 63bb
000001c0: b413 953d d9fc 1abe f199 06bd dd0d acbd
000001d0: 4a36 1dbe e2c7 323d 83d9 a93d b7e3 ca3c
000001e0: 3fb2 7ebd da8c 2cbc 82d7 a9bd f689 96bd
000001f0: b38a e63d 0e92 0c3c 6eee dfbc f21e 8bbd
00000200: 5d91 9abd a1b0 6b3d 45f3 ee3c 0d48 22bd
00000210: d114 873d e071 043b 7d30 81bc 4a53 2f3d
00000220: d82b be3d cdb7 a13c d04e bb3d 3616 28bb
00000230: 72a4 8abb c2da c53d 8f55 113e bb52 a83c
00000240: 7cdd 2abd f027 30bc feb6 c73c 4d9f e2bd
00000250: ccf3 713d f0d4 e2bb 38ce 323d c8c5 22bb
00000260: c0bd 8d3d 9304 723d bf38 30bd 50e7 c7bd
00000270: 3038 6a3d 5062 a33d 11fd 673d 27ae 923d
00000280: 6383 0b3e f308 9bbd 3b2b f3bd e39b a5bd
00000290: 077f 013d 9296 3abe a26f 75bd 5d7f e43b
000002a0: cf3a 90bc ffab 28be 96fa adbd 90cb 39be
000002b0: 95f2 28be 90f7 63bc e580 aabd cba1 d6bd
000002c0: 85a9 27bd 53c1 b03c e829 b9bd 4501 bbbd
000002d0: be49 9cbd e5be 253d 27ba c8bd d628 a83d
000002e0: f77d 0e3c e618 073d 4a74 a43d ef34 9bbc
000002f0: 55a3 2dbd 9522 c93d e804 1f3d a281 67bd
00000300: 4fb9 873d 92f4 6b3d 5ffc 843d 4da7 c53b
00000310: e1bd d4bd 6932 8ebd 0e83 35bd 6fb3 aa39
00000320: 81d4 5f3d d274 9ebc e16d 863d d510 0b3e
00000330: 5720 cf3d cac4 1e3e 8a1a afbb 6808 d13d
00000340: 109a bf3d 9d7f 133e 0550 b7bc ba35 aabd
00000350: fddd e43d 2a68 a8bd ce4d 5cbd 12ec c83c
00000360: 8ccd c63c 00e5 b0b9 77a0 3bbd cde8 763d
00000370: d9fb 8cbb a502 8ab9 8e53 3fbd 07ad 9e3d
00000380: f746 0b3e 0ce5 123e 7975 cc3d a1c6 0c3d
00000390: 52f8 fb3d ef95 7c3d b3c3 b2bd f0e7 023e
000003a0: cc9e 773d 7f81 46bb 01aa 833d 10ce 353e
000003b0: e8bf 5abc 9055 bf3d 29a7 493d 88d4 dd3d
000003c0: 557d b83c 44fe ae3d 61c1 2a3e c143 f53a
000003d0: 2f69 de3d ea48 cf3d ce02 063e 7dc7 f13d
000003e0: a50f 1dbd 45a1 6d3d 26f1 09bd e78c f23d
000003f0: 88c8 d03c a1a0 e73c 952b d93c 6cad 1b3b
-0.051749945 -0.038097735 0.043309864 0.012772999 -0.10864462 -0.045672327 0.008080373 -0.032526646
0.059583787 0.1515805 0.08209524 0.09023797 0.12973383 -0.014350589 0.028343607 0.057526443
0.16203457 0.08417902 0.20777647 0.13652955 0.027912138 0.17699684 -0.019441156 0.06669109
0.0076115564 0.16527739 0.023495797 -0.09010467 -0.04374149 0.06408223 0.04120225 -0.101962686
0.078640714 0.06991197 -0.07177883 -0.018864015 -0.016260643 -0.11509557 -0.045360602 0.09704078
-0.08346103 0.018453993 0.065251805 -0.08245695 0.051070247 0.039696172 0.023771327 -0.116803266
0.0674168 0.0006855951 -0.11151448 -0.00796823 0.09295527 -0.023200719 -0.0920342 0.043211423
-0.047834788 -0.15416509 -0.08252983 -0.054753393 -0.06905025 -0.11621994 -0.18927412 -0.112264715
-0.08567322 0.068101466 -0.14455327 -0.02638346 -0.08801723 -0.0620249 -0.09491588 -0.018378852
-0.044393785 0.017009847 0.048854876 -0.019625152 -0.018037204 0.08474567 0.06999395 0.06829723
0.15238774 -0.054591272 -0.07061304 -0.26483637 -0.14993861 -0.042663053 -0.28620845 -0.17153758
-0.1949654 -0.042088155 0.10673116 -0.0072055873 0.17414044 0.20652516 0.10810339 0.20682727
0.16138689 0.23895483 0.07188567 0.1237653 0.10081782 -0.074447244 -0.06379038 0.068287335
0.09958929 -0.05663711 0.15044226 -0.0737987 -0.026643263 -0.108283885 0.054347113 -0.0034712597
0.07279149 -0.15135516 -0.032861654 -0.08401082 -0.15352741 0.043647654 0.0829344 0.024766786
-0.062181707 -0.0105316285 -0.08293058 -0.07350533 0.112569235 0.008579744 -0.027335372 -0.06793012
-0.07547257 0.057541493 0.029168734 -0.039619494 0.06595767 0.0020209476 -0.015770191 0.04280404
0.09285706 0.019740963 0.09145892 -0.0025648004 -0.004231029 0.09660865 0.14192794 0.020547261
-0.04171513 -0.010751709 0.02437925 -0.110655405 0.059070393 -0.006922357 0.043653697 -0.0024837125
0.069209576 0.059086394 -0.043022867 -0.09760916 0.05718249 0.07977736 0.056637827 0.07162123
0.13624339 -0.07570066 -0.1187348 -0.08086374 0.031615283 -0.182215 -0.059920914 0.0069731907
-0.017606167 -0.16471861 -0.08495061 -0.18144059 -0.16498788 -0.013914004 -0.08325366 -0.10480078
-0.04093315 0.02157656 -0.09041196 -0.091311015 -0.07631253 0.040465254 -0.09801131 0.08210914
0.008697025 0.03298273 0.08029993 -0.01894614 -0.042392094 0.09821049 0.03882304 -0.05652011
0.06627142 0.057606287 0.064934485 0.0060319067 -0.10387779 -0.06943209 -0.044314437 0.00032558615
0.05464602 -0.019342814 0.065639265 0.1358064 0.1011359 0.15504757 -0.00534374 0.102066815
0.09355557 0.1440415 -0.022377023 -0.08311029 0.111751534 -0.08222993 -0.053785138 0.02452663
0.024267934 -0.00033739954 -0.045807328 0.06028061 -0.0043024835 -0.00026323381 -0.046710543 0.07747846
0.1360129 0.14345187 0.09983344 0.034369115 0.12303223 0.061666425 -0.08728733 0.1278379
0.060454175 -0.0030289588 0.0642891 0.17754388 -0.013351418 0.093424916 0.049231682 0.10831553
0.0225207 0.08544591 0.1667533 0.0018712209 0.10859906 0.10121329 0.13087007 0.118056275
-0.038344998 0.058015127 -0.033677243 0.11843281 0.025486246 0.028274836 0.02651004 0.002375449

feature_extractor.bn_2.weight f4 [8]
00000000: fbb4 ad3e 142a 073e 4fbe d03e c8d4 253f
00000010: c0cf 693f fa60 633f 973e 1b3f af73 793f
0.3392714 0.13199645 0.40770194 0.64777803 0.91332626 0.8881985 0.6064238 0.97442144

feature_extractor.bn_2.bias f4 [8]
00000000: 0e4f c33b a197 c83d bb2c d23d 01a1 6dbc
00000010: 62af 093e cf53 713c daf2 fd3c b469 293e
0.005960352 0.09794546 0.10262438 -0.014503718 0.1344581 0.014729454 0.03099959 0.16544229

feature_extractor.bn_2.running_mean f4 [8]
00000000: e874 54be 41e7 65be 2140 6e3d 305e d63e
00000010: 9885 2fbe c9ef 653e f9d5 4e3e 6474 f5bc
-0.20747721 -0.22451498 0.058166627 0.41868734 -0.17140806 0.22454752 0.20198812 -0.029962726

feature_extractor.bn_2.running_var f4 [8]
00000000: 685f 433e deef 3c3e ef7b 823d ced8 073e
00000010: 4f03 a93d 5396 893d f2c2 8f3d bd4f 343e
0.19079363 0.18450877 0.06371295 0.13266298 0.08252584 0.06718125 0.07019605 0.17608543

feature_extractor.block_1.skip.weight f4 [16, 8, 1, 1]
00000000: cac2 c7be bdfb 28bd a73e 393e a859 b43d
00000010: fcd3 11be bedd 17be b45b a7be f74e 7fbe
00000020: 55d0 8abe f925 973e 6c34 21be 43e1 b53e
00000030: 378c 8bbd ae4a 8abe a7da 763e 8008 d1bc
00000040: d8ee 00be 70ad 0c3d 9c16 603e 10cb 3ebc
00000050: 2171 973e d5b0 2a3e d75a 483e 4aba 983d
00000060: d0c5 8ebd 01e3 b23b 48ee 6a3e ab1e eebd
00000070: 47cc 5e3e b0d4 e73d e282 4b3e 4615 3f3d
00000080: d65a f33d 4474 e13e a2f4 84be 0d2f 94be
00000090: ec12 4ebe 42ca 93be 24e2 8a3d e5e4 8f3d
000000a0: 765c 3bbe 7eba 263e d71f 38bd c3a9 763e
000000b0: a28d 61be 640d 583e bf25 443e 86b4 73be
000000c0: 7fd2 3d3d b12d 71be 926a f03d dec2 53be
000000d0: 2223 3dbd 934e 613e 1499 36be 1df7 81be
000000e0: af81 253e 7803 1cbe 0761 743e 7d0f dbbd
000000f0: ce65 a1be e8f6 a53d 42a9 913d 6f7c b23d
00000100: f79f 00bc 6f65 b23e f66f b03c 56af 6b3e
00000110: ae44 003e b1ab 0c3e caf9 2ebe 24de 8ebe
00000120: c191 b8bc 776f abbe c8b7 013e 3514 543d
00000130: 0b52 993e 0b8b 5f3e 647c 4a3e 4db7 76be
00000140: 665b ac3b a0db a83e 05d6 2dbe 24ec e3bd
00000150: feed bb3d dd94 6e3e 356e c5be c1d7 163d
00000160: 86a4 40be faf3 18be 991f 3dbd ebac 9d3e
00000170: f48f 373e a403 a83e 25ae 1b3e 855a b23e
00000180: 3571 c5be 3cfa b5be 8c3f a03e aa5b 513e
00000190: 2668 8d3d a1f3 acbe edf2 a83e c69f 88bd
000001a0: 161b 3f3e de29 393e 292e ab3e 0ee5 83bd
000001b0: 2da4 923e a612 94bc f92c ed3d faa3 76be
000001c0: 90e0 a93e 996f a3bd 8d6c ecbb 0f95 8fbe
000001d0: 9174 3c3e ecc7 90be e49c 9bbe ba6d 093e
000001e0: 3d23 83be 648d 663c f676 493e 7064 bf3e
000001f0: f82c ac3e 921c 63be 1c6c b1bc e30f 123e
-0.390158 -0.0412557 0.18090306 0.08806163 -0.14241022 -0.14830682 -0.3268715 -0.24932466
-0.2711207 0.29521158 -0.15742654 0.35523424 -0.06813853 -0.270101 0.24106847 -0.025516748
-0.12591112 0.03434509 0.21883625 -0.011645094 0.29578498 0.16669019 0.19565903 0.07457407
-0.069713235 0.00545919 0.2294246 -0.11626943 0.21757613 0.11319864 0.19874147 0.046651147
0.1188256 0.44034016 -0.2596789 -0.28942147 -0.20124406 -0.28865248 0.06781414 0.0702608
-0.1829699 0.16282079 -0.04495224 0.24088196 -0.22026685 0.21098858 0.19155024 -0.23799333
0.046343323 -0.23552586 0.11739077 -0.20679805 -0.046176083 0.2200263 -0.17831832 -0.25383845
0.16162752 -0.15235698 0.23865138 -0.106963135 -0.31522983 0.08103734 0.071123615 0.0871514
-0.007850639 0.34843013 0.021537762 0.23016104 0.12526199 0.1373737 -0.17087474 -0.27903855
-0.022530438 -0.33483478 0.12667763 0.051777083 0.29945406 0.21830384 0.19774014 -0.24093361
0.005259919 0.3298006 -0.16976173 -0.111290246 0.09176253 0.23298974 -0.38560644 0.036826853
-0.1881276 -0.1493682 -0.046172712 0.30795988 0.17926008 0.32815278 0.1520315 0.34834686
-0.38562933 -0.35542476 0.31298482 0.20445123 0.0690463 -0.33779624 0.32997838 -0.06671099
0.18662676 0.18082377 0.33433655 -0.06440173 0.2864088 -0.018075299 0.115808435 -0.2408599
0.3317914 -0.0798027 -0.0072150887 -0.2804341 0.18403842 -0.28277528 -0.30393136 0.13420764
-0.25612822 0.014071796 0.19674286 0.37381315 0.33628058 -0.22178867 -0.021657996 0.14263873

feature_extractor.block_1.skipbn.weight f4 [16]
00000000: b042 833d 2de5 ba3e 3ab9 ce3e c3bf ee3e
00000010: 5488 773f eeea 803f a452 743f 48fc 313f
00000020: dbd3 a03e c4cd 883f 2de0 903e 9403 6e3d
00000030: d91b 0c3d 7577 ea3d 8d35 493e f9ff 333e
0.06409204 0.36502972 0.40375692 0.46630678 0.96692395 1.0071695 0.954386 0.69525576
0.31411633 1.0687795 0.28296033 0.05810888 0.034206245 0.11448566 0.19649334 0.17578115

feature_extractor.block_1.skipbn.bias f4 [16]
00000000: 87d7 81bc 6df4 9e3c e931 96bc 0fa1 043d
00000010: 5d50 c43c b733 3dbc 9ef5 bb3b 1def 70bd
00000020: 7ccf e63b 041f 533d c535 b83d 82af c7bd
00000030: 048f f03c b7f3 54bc e0cc 043d 8bf0 db3d
-0.015849842 0.01940366 -0.018334346 0.03238016 0.023964101 -0.011547974 0.005736067 -0.058821786
0.007043777 0.05154325 0.08994631 -0.09750272 0.02936507 -0.012997559 0.032421947 0.10739239

feature_extractor.block_1.skipbn.running_mean f4 [16]
00000000: 3d2d 9cbe 63fd 42bc c52e 923e 6aca 503e
00000010: 8551 3abe ed81 38bd 8ed7 23be 7a33 9dbc
00000020: 69f5 bd3c 660e 013e 3ec0 3f3c c138 ce3e
00000030: 8856 1dbc 8c0b fe3d dfc4 75bd f5dd 673e
-0.30503264 -0.011901232 0.28551307 0.20389715 -0.1819516 -0.045045782 -0.16000196 -0.019189585
0.02318831 0.12603149 0.011703549 0.40277675 -0.00960315 0.12404546 -0.060002204 0.22643264

feature_extractor.block_1.skipbn.running_var f4 [16]
00000000: aa88 3a3d 2721 913d 13eb 473d c2fc ce3c
00000010: ca35 033e 86ce e63d 7201 523d 919a 483d
00000020: 2389 d43d 88f4 f53d b726 2e3d 95f3 e63d
00000030: b30e 263d 7853 4b3d 83e4 193e f090 173d
0.04554049 0.070864014 0.04880817 0.025267009 0.12813488 0.1126986 0.05127091 0.04897553
0.10377719 0.12009531 0.04251739 0.11276928 0.040541362 0.04964015 0.15028577 0.037003458

feature_extractor.block_1.rep.1.conv1.weight f4 [8, 1, 3, 3]
00000000: 065c fdbd 746b 4a3e 5728 0e3e 302b 863e
00000010: a325 bdbd 701d 8ebe f104 85be 9679 80be
00000020: 1c56 b4be 70ad 4ebe 6b60 063e 2194 a83e
00000030: de2e 94be c412 ab3d edfa 853e 0b7e 7ebe
00000040: 4847 123c 0732 ef3d 08ea 7d3e 2193 9cbc
00000050: e9f7 9e3e e975 3abe 1ce5 00bd f8bd 0cbe
00000060: 9563 203d 833a 8c3e 4bf1 833d c415 913e
00000070: b559 6c3d d120 b6bd 849b 9a3e d0cc 0dbe
00000080: 4fa4 2fbe 1efe b13e 65c4 1ebc f7bf d0bc
00000090: 0dee d43c 6e7e 06be 8733 88be ef73 1a3e
000000a0: 7118 8c3e c791 5ebe 15e9 ed3d 6b7c 15be
000000b0: 296e 923e 7201 df3d 2b79 93bd 92fa 69be
000000c0: 9028 17be e7b7 dc3d cb24 52bd 9eac 28be
000000d0: f907 debd 5505 98be 2bfb 513e 423c 91be
000000e0: 457a 563e 2ac4 563e ad88 0f3d d7b6 9f3e
000000f0: 605f 983e a139 443c f076 a13e 1d0c a8be
00000100: 3c31 983e 21a7 1abe 3ff9 423c 9bbf e8bd
00000110: 8ad1 86be bd81 b03e bb31 b13d d8f4 3ebc
-0.12371068 0.19767553 0.13882576 0.26204824 -0.09235694 -0.27756834 -0.25980332 -0.25092763
-0.35221946 -0.20183349 0.13122718 0.32925513 -0.28942007 0.08353189 0.26168004 -0.24852769
0.008928128 0.11679464 0.24796307 -0.019113125 0.31048515 -0.18209042 -0.031468496 -0.13744342
0.03915747 0.2738839 0.06442507 0.28336918 0.05770274 -0.08892978 0.30196774 -0.13847661
-0.17152523 0.3476419 -0.009690379 -0.025482161 0.025992418 -0.13134167 -0.26601812 0.15083288
0.27362397 -0.21735297 0.116167225 -0.14598243 0.2859967 0.108889475 -0.07200845 -0.22849491
-0.14761567 0.10777264 -0.05130462 -0.16472098 -0.108413644 -0.29691568 0.20505969 -0.28366286
0.2094508 0.20973268 0.035042454 0.31194183 0.29760265 0.01197663 0.31536055 -0.32821742
0.29725063 -0.15102817 0.011900245 -0.11364671 -0.2633174 0.34473982 0.086520635 -0.011655055

feature_extractor.block_1.rep.1.pointwise.weight f4 [16, 8, 1, 1]
00000000: 097a c9bd accf 403e 8fab adbe 49a1 17bd
00000010: 9985 053e 260f 683e 1fb2 9f3d be80 5f3e
00000020: eee8 b93d 2f69 9f3e ffe5 a7bd a6d6 b5be
00000030: bb65 6e3e 9d9a 723b 3bf7 4a3e 9412 1fbe
00000040: 7b3b 0ebe 70fc 2cbb b09d 573d c10e 93be
00000050: cb8a 7cbe fc5a b93e a7a2 543d f138 7dbe
00000060: 3602 6a3e 50ea 263e a22b 233e 9ca9 053e
00000070: 3d74 5fbd 3ec0 6cbe 10f0 b2be 1335 46be
00000080: 2c1d d8be 856a 313d 5a11 303e e090 3d3d
00000090: c9a7 fabd e10f 57be 75c1 3a3c cdb1 283c
000000a0: 819a 163d 84a3 883e 2c5d 3dbd 59dd 693e
000000b0: 5024 5f3e a75e 023d 61fb 81be f9aa afbd
000000c0: d332 59bd 629c 3cbe 3153 5e3e f6c6 ab3e
000000d0: a88f a73e 072e 883d 058c a3be 0c56 923e
000000e0: 25ae 06be c8fa 7d3d 7c57 9a3d 4c66 a1be
000000f0: 17fe 9cbe 36ff aa3c b21d 1a3e a1a3 4b3e
00000100: 601c 793d 8afb 98be e72b 5c3c cc84 0b3c
00000110: 38e1 b13e 0fad 5e3e 0949 34be 3d89 b23d
00000120: 4dc4 953e 23f2 ebbd 042d 9e3e b50b 65be
00000130: 0151 533d d873 b33e 2507 983e a635 89be
00000140: a6b8 f23d a6af 703d d18f 85bd ba6e 8fbe
00000150: e3d2 d6be a13c 29be 7f12 213e 6c2b b53e
00000160: 8dd9 953e 02ca 6d3d b982 c1be e26f 9a3d
00000170: 3b8d 50be 1444 85be fa46 0dbe bc18 9d3e
00000180: a29a 7b3e bdc7 b2be bace 433e ad74 44be
00000190: c84c 403e 215a 263e d2d5 cabe c2a7 163e
000001a0: 9f03 91be 4395 5fbe e368 7cbe 20f7 9fbc
000001b0: 58f3 a5be 9cba 673e a251 09be 15a4 f03d
000001c0: ee79 29be f6d7 f83d 1958 683d 99b3 173e
000001d0: 8b24 123e 4666 783d 9f93 e6bd b3b9 b03e
000001e0: fe61 05be 5fd4 69be 2f69 f13b 4aaf 3c3e
000001f0: d8b0 bebd 2363 c03e 81e9 1b3e 7cff cc3e
-0.098377295 0.1882922 -0.3391995 -0.037019048 0.13039245 0.22662029 0.07797646 0.21826455
0.09077631 0.31134936 -0.08198165 -0.35515326 0.23280995 0.0037018426 0.19820873 -0.1553443
-0.13889877 -0.0026395582 0.052640617 -0.28722194 -0.2466232 0.36202228 0.05191293 -0.24728753
0.22852406 0.1630032 0.15934613 0.13052982 -0.054554213 -0.2312021 -0.34948778 -0.19356184
-0.42209756 0.043314476 0.17194119 0.04628074 -0.12239034 -0.21002151 0.011398663 0.010296297
0.03676844 0.26687253 -0.046231434 0.22838344 0.21791196 0.03182855 -0.253871 -0.08577532
-0.053026985 -0.1841903 0.21711423 0.33550233 0.3272679 0.06649404 -0.31942764 0.28581274
-0.13152368 0.06200674 0.075362176 -0.3152336 -0.30662605 0.020873647 0.1505039 0.19886638
0.060818076 -0.2987941 0.0134382015 0.008515548 0.3474214 0.21745704 -0.17605986 0.087175824
0.29251328 -0.11520793 0.3089372 -0.22367747 0.051590923 0.3504932 0.2969295 -0.26798743
0.11851625 0.05876126 -0.065215714 -0.28014165 -0.4195777 -0.16527034 0.15729712 0.3538469
0.2926754 0.058053978 -0.37795046 0.07540871 -0.20366375 -0.26028502 -0.13796607 0.30682933
0.24570706 -0.34918013 0.19121829 -0.19185133 0.1877929 0.16245319 -0.39616257 0.14712432
-0.28323075 -0.21834283 -0.24649386 -0.019527018 -0.3241222 0.2262978 -0.13410047 0.11750046
-0.16550419 0.12150566 0.05672464 0.14814605 0.14271753 0.06064441 -0.11258625 0.34516677
-0.13025662 -0.2283492 0.007367275 0.18426242 -0.09311074 0.37575635 0.15225793 0.4003867

feature_extractor.block_1.rep.2.weight f4 [16]
00000000: 8cc2 0e3f 191c e63e 25c3 9a3e e848 6e3e
00000010: 43e3 3c3e 524b 103f 3e16 553e e02f e33e
00000020: a961 6d3f 0e76 303e c31c 553e 1408 523f
00000030: 7a6d 643e 08c5 313f 97aa 5d3f 5430 f83e
0.55765605 0.44943312 0.30227008 0.23269999 0.18446068 0.5636493 0.20809266 0.44372463
0.9272714 0.17232534 0.20811753 0.82043576 0.22307387 0.6944127 0.86588424 0.4847437

feature_extractor.block_1.rep.2.bias f4 [16]
00000000: c9cb 563b 7b28 733b 29b6 053e 33d6 3cbd
00000010: 371e 8e3d 7a68 463d 3e51 513d 34dd 8e3c
00000020: 4e31 fa3d dbb4 c73b 08c5 a83d e07e 313d
00000030: 2a07 1abd 59d8 ecbd 884d 78bb 5ee2 113d
0.0032775274 0.0037102986 0.1305777 -0.046102714 0.06939357 0.04843948 0.05110287 0.017439462
0.122164354 0.0060945577 0.08240706 0.043333888 -0.03760449 -0.115647025 -0.003788801 0.03561627

feature_extractor.block_1.rep.2.running_mean f4 [16]
00000000: 9752 95bd 34be b83c 4811 b4bd 8580 d2bc
00000010: 29b3 fa3d 3d6c 46bd 5e25 61bd f547 aa3a
00000020: 80c3 ebbd bce7 cdbb 2041 07ba a1aa 87bd
00000030: ab5a 52be 825b 01be 433d b2bc 59e3 3dbd
-0.072911434 0.022551633 -0.08792359 -0.025696049 0.12241203 -0.048443068 -0.054967277 0.0012991416
-0.11511898 -0.0062837284 -0.00051595457 -0.06624342 -0.205424 -0.12632564 -0.021757727 -0.046359394

feature_extractor.block_1.rep.2.running_var f4 [16]
00000000: 4304 883c c6a9 523c eb49 433d 5700 023d
00000010: fdec 313c ed4c ae3c 3ebd 053d e7ae 8f3c
00000020: 272d d03c 64c8 203d 88f7 e23c 5f07 a73c
00000030: 4b61 643d 9c93 fd3c 22a5 003c f16a 043d
0.016603595 0.01285786 0.047677916 0.031738605 0.010859725 0.021276915 0.03265118 0.017539455
0.025412155 0.039253607 0.027705923 0.020389257 0.05575685 0.030954175 0.007851871 0.03232855

feature_extractor.block_1.rep.4.conv1.weight f4 [16, 1, 3, 3]
00000000: 82dc b5be 3fa1 0bbe 6358 66bc 4698 8c3e
00000010: 039e 44be 744a f13c 5b35 7e3d bd23 82be
00000020: 471b 91bd 62e4 7e3e 89cc 863e 5ea0 98be
00000030: 5c06 c0be 35fa abbd 7b98 f4bd de85 43be
00000040: 5049 333e e0e2 3cbd df5d 67be 48a9 5e3e
00000050: d920 9d3e 1ab2 a7be 0b86 163d f480 a53e
00000060: 5f02 85be c31c 09bd d650 e03d 2393 71bd
00000070: ada6 903c 4e92 673d e6ad acbe 9421 8b3e
00000080: fa12 8bbe efb3 783e 0c58 88bd 6219 6f3e
00000090: 0344 9fbd ebb2 b7be 2586 21be d7ca a9be
000000a0: c94f 813e 1fdd 1f3e 2c83 55be ec04 34be
000000b0: 2141 a8be 8819 45be dabc 4dbe 0a85 7f3e
000000c0: 968d 89be 041d 7dbe f8aa 0bbd 4214 59bd
000000d0: 42e5 8abe 3355 fbbd 0081 843e 5ac4 9fbe
000000e0: bf0a 9a3e 6a77 e23d 3216 21be c3b2 ef3d
000000f0: 54c1 4fbe 56a3 8fbe 6f0b 1e3e 25ff 8ebe
00000100: fb66 9abe 48db eebd 0c61 60bd 1b02 36be
00000110: 99a7 31be 76d1 943e 36ca 74be 27ed 253d
00000120: cf32 113e 70ea e9bd ccf5 a03e c2f5 0f3e
00000130: 6937 b7be a17f 84be 34db 773e 729d ee3d
00000140: 6dbb 7abd 1415 d13d 1b96 8a3e 3826 303e
00000150: 4bf8 623e c9fb 68bd 7e80 993e 8764 053e
00000160: 50c8 85be 6bdd 2e3e bd45 6f3e 9c19 c0be
00000170: 15d2 5dbe 7916 61be f12d 5b3e 4026 98be
00000180: a0e6 833d 3867 91bc 6aea 91be 7888 8d3e
00000190: d04f 91be 1ccd afbe 07e9 553e dcb6 493e
000001a0: 8e94 6abe bd3a 38be 23d2 9bbe f4fe 16be
000001b0: a132 9a3d 6fe5 b4bd 0b2e c1bd 8843 893e
000001c0: 09d1 0c3e 36d0 e3bd a502 9cbe e9cd 69be
000001d0: c56b 0ebe a4d0 1d3e bcaf c3bd f46e 78be
000001e0: e702 883e 0617 b6bd 5c97 80bd 5911 17be
000001f0: 1253 81bd fa57 933e 3345 43be 3563 183e
00000200: 5dca 923e 307c 0a3e 27e3 903e ef5b edbd
00000210: 8ec0 cd3a 53da e13d f688 c4bc 8f35 923e
00000220: ce74 873d 8cf1 633e 7346 6bbe 6ce6 a03e
00000230: 7584 05be fa20 eb3d 4841 94be a134 5c3e
-0.35519797 -0.13635729 -0.014059159 0.27459925 -0.19200902 0.029454447 0.062062602 -0.2541789
-0.07085281 0.24891809 0.26327923 -0.2980985 -0.37504852 -0.083973326 -0.11943146 -0.19094035
0.17508435 -0.046114802 -0.22594403 0.21744263 0.30689123 -0.32753068 0.036748927 0.32324946
-0.25978372 -0.033474695 0.10952918 -0.05897821 0.017657602 0.05653601 -0.33726424 0.27174056
-0.27162915 0.24287389 -0.066574186 0.23349527 -0.07776644 -0.3587869 -0.15773828 -0.33162567
0.25256184 0.15611695 -0.2085082 -0.17580003 -0.3286219 -0.1924802 -0.20091572 0.24953094
-0.26865834 -0.247181 -0.034098595 -0.052997835 -0.27128035 -0.1227211 0.2587967 -0.31204492
0.30086324 0.11057933 -0.15731123 0.11704018 -0.20288593 -0.28054303 0.15434049 -0.27929035
-0.30156693 -0.11662918 -0.05478005 -0.1777424 -0.1734909 0.29066056 -0.23905262 0.04050937
0.14179538 -0.114216685 0.31437528 0.14058593 -0.35784462 -0.25878623 0.24204713 0.11651124
-0.0612139 0.102090985 0.27067646 0.1720208 0.22165029 -0.056880746 0.29980844 0.1302663
-0.2612939 0.17076652 0.23366447 -0.37519538 -0.21662171 -0.21981229 0.21404244 -0.29716682
0.064404726 -0.017749414 -0.28499156 0.2764318 -0.28381205 -0.34336174 0.20889674 0.19698662
-0.22908232 -0.17991157 -0.3043376 -0.14745694 0.07529188 -0.088328235 -0.0943261 0.26809335
0.13751616 -0.111236975 -0.30470768 -0.22832455 -0.13908298 0.15411621 -0.09555003 -0.24261075
0.26564714 -0.0889111 -0.062788695 -0.14752711 -0.063146725 0.28778058 -0.19069366 0.14881594
0.28670016 0.13523936 0.28298303 -0.115898006 0.0015697645 0.1102797 -0.02399109 0.28556487
0.066140756 0.22260112 -0.22976093 0.31425798 -0.1303881 0.11480899 -0.28956056 0.21504451

feature_extractor.block_1.rep.4.pointwise.weight f4 [16, 16, 1, 1]
00000000: af7b 6a3e 0106 a3bd d4f1 3a3e 8e05 37be
00000010: 259c 403e 0c5c 523e 0603 b13d 3464 f5bd
00000020: ad0a 5abd b0bd 37bd 4319 78be 073a 88be
00000030: 73e4 353e ffef 8f3d 5be5 523e ccb0 47bd
00000040: 6cc9 0c3e 4eff 0c3e e4d5 18bd f18d 413e
00000050: a1ee a63d 0588 59be d8ed 4bbd 9b90 003d
00000060: 855e 883d 820d 36be 5bb8 8c3e 2c62 0c3e
00000070: 378b 42be 3a47 a23d 9691 2bbe bcf4 583e
00000080: 996c 95bd a4bd 07be bf88 5c3e c269 60be
00000090: c3ee fe3c 0fd4 203e fb55 4d3e d405 273e
000000a0: 12d9 633e 6176 423e 99d8 e13c 298f 8fbd
000000b0: 842a 9a3e 3201 443d 836a 3b3e 9b37 d93b
000000c0: 5f81 163e a683 493e 7e15 fdbd baac 15bd
000000d0: 841a 433e b532 03bd 3e17 e2bd 883f 6ebc
000000e0: 7eb5 ddbd ba00 66bc c129 a23e 54d7 2cbe
000000f0: 3d1c 1c3e 9955 af3d df48 81be 8d87 e2bd
00000100: 9c7e a4bd a9f0 493e ba53 81be c3e2 77bb
00000110: 0d11 f53c 9a1f 3fbd edcf 603e 15f9 1ebe
00000120: 89f3 8b3e ee3b b8bd 47e3 3cbd bf9d 1f3c
00000130: e1a3 fe3b ef4e 723e 3558 4e3e 8e0e 203e
00000140: fca4 7d3e d86f 66be 45fa b2bd c096 3f3e
00000150: 1a05 be3d b377 e9bc f786 423e 8d39 f03d
00000160: bcac 433e 2970 8abd c038 0dbe 31dc 58be
00000170: 76a5 993d 1c7a 3c3e 4849 e43d f908 3fbd
00000180: 2bcf f83c 1557 473e 63b2 68be ce8f e5bd
00000190: 2aed 153e 112d 823e 27d3 4d3e 1067 7cbd
000001a0: b240 2dbe bd38 20be 5786 8f3e b942 373e
000001b0: 4b28 113e 103d 3a3d 3606 dfbd f884 a0bd
000001c0: a4dc 3c3e d797 03be 01f9 693e bdb3 04be
000001d0: 2d7d febb b02c 293e ee1c 483e 92c9 a1ba
000001e0: 5876 5dbe 98ed 643c a1d3 65be 7085 293e
000001f0: c504 83bd c9c5 863d 9ed8 c63c 5c8b 8fbe
00000200: 8cd8 023e fa9a 163e 0a73 b0bd eebd 6ebc
00000210: 2577 8d3e 0e52 f53d 4d2c 8abd 4ee3 8e3e
00000220: 9127 9ebd 6ca8 0ebd bcb0 393d 8779 903e
00000230: 8d1e e43d 9262 1fbe 31c1 d2bd da2e 88bd
00000240: b27e 323e a83b 303e 54d8 4e3e a06e 8cbe
00000250: c677 12be 85ee 62be aba4 f9bd 85c5 54be
00000260: 7322 e2bd d7ae 753e 49ba 4abe f904 693e
00000270: 6865 f0bd 6076 803c d02b 093d 2a3d 713e
00000280: ab67 2f3d 37fa 14be fa08 5e3e 8be1 00be
00000290: 9be8 853e 4ef6 90bd b286 2abe 444f 24be
000002a0: 7101 1c3e 497c b23d 40dd b9bd 761d 33bd
000002b0: e221 df3d 12f5 54bd 7591 3ebd 593c 223e
000002c0: 665c 3dbe c9a3 7abe 7050 92be b8a7 2ebd
000002d0: 935c b2bd db54 a93d f8bb ffbd e93b a3bd
000002e0: b012 8fbd fbfa 44be 9282 613e f6b7 50be
000002f0: e904 e93c 11b4 c8bd 5f97 433e 84b8 7a3e
00000300: baef 7a3e 2513 9c3d 663b 19be 9776 8e3e
00000310: dcc5 263e a4ba 21be 334d f6bb 79f7 b9bc
00000320: a6fa efbc 3adf 003e 3be4 f73d a35d d5bd
00000330: d265 c03e 7308 65be 0f3d 33be 2534 163e
00000340: 3fdd f3bd 7531 1f3e 9ba9 063e e7b4 3ebe
00000350: 96e4 82be 0b3e 11be d23b a3bc 9248 6e3e
00000360: c043 c0bd 2403 89bc 1cc1 a2bd 0978 e43d
00000370: 8251 783d 2080 763d 095d 7fbe 6b36 3bbe
00000380: 03aa 8b3e fd30 753d 3c1b 21be 7844 473e
00000390: 6879 333e 4644 e33d 8992 21bd de74 c1bd
000003a0: 89fb 353e 661e b3bd 58ac 18be 8a72 fe3b
000003b0: a011 f53d 9e3d d2bc 493d 0f3e 9abb 92bd
000003c0: 9890 9a3e 9b8a 2ebc de93 943b 7a9e 37be
000003d0: ee99 81be 5693 003e 7822 d03d b15a 5fbe
000003e0: b987 88bd 491b 4bbe f40d 583c 7f7b 2ebe
000003f0: 58cf 093d 3c8d 853d 2ee6 c9bd 5c1c 21bd
0.22898744 -0.079601295 0.18256313 -0.17873213 0.18809564 0.20542926 0.08643155 -0.11982003
-0.053232837 -0.044858634 -0.24228387 -0.2660677 0.17762928 0.070281975 0.20595305 -0.04875259
0.13748711 0.13769266 -0.037313357 0.18901803 0.081509836 -0.21243294 -0.049787372 0.031387907
0.06658653 -0.1777859 0.27484402 0.13709325 -0.18998419 0.07923742 -0.16754755 0.21187109
-0.07296104 -0.13255936 0.2153654 -0.21915343 0.03111971 0.15705894 0.2005233 0.16310817
0.22250775 0.1899047 0.027569102 -0.070097275 0.30110562 0.047852702 0.1830235 0.006628943
0.14697789 0.19679126 -0.12357615 -0.036541678 0.19053084 -0.03203078 -0.11039589 -0.014541514
-0.108256325 -0.014038259 0.3167248 -0.16879016 0.15245147 0.08561248 -0.2525091 -0.110610105
-0.08031961 0.19720711 -0.2525919 -0.003782437 0.029915357 -0.046660997 0.21954317 -0.15524705
0.2733424 -0.08995806 -0.046115186 0.009742199 0.0077710007 0.23662923 0.20150836 0.15630552
0.24769968 -0.22503603 -0.087391414 0.1870985 0.09278317 -0.02849946 0.18996798 0.11729727
0.19108862 -0.06759674 -0.1379118 -0.21177746 0.07502262 0.18405956 0.1114679 -0.046639416
0.030372223 0.19466813 -0.22724299 -0.11209069 0.14641252 0.25425008 0.2010008 -0.061621726
-0.1691921 -0.15646644 0.2803218 0.17896546 0.14175527 0.04546839 -0.108898565 -0.07837862
0.18443543 -0.12850891 0.22848894 -0.1295919 -0.007766387 0.16520953 0.19542286 -0.0012343398
-0.21627176 0.013972662 -0.22444011 0.16554809 -0.06397394 0.06580693 0.024273213 -0.2803601
0.12777919 0.14707556 -0.08615692 -0.01457165 0.27629963 0.11978541 -0.06746731 0.27907795
-0.077223904 -0.03482859 0.045334563 0.28217718 0.111386396 -0.15564945 -0.102907546 -0.06649561
0.17431143 0.17210257 0.2019971 -0.2742815 -0.14303502 -0.221613 -0.12189611 -0.20778473
-0.11041727 0.23992477 -0.19797625 0.22755803 -0.11738092 0.015681446 0.03348905 0.23558488
0.042823475 -0.14548574 0.21683112 -0.12586038 0.26154026 -0.07078229 -0.16652945 -0.16045862
0.15234925 0.08715112 -0.09075403 -0.043729268 0.108951345 -0.05199153 -0.046525437 0.15843333
-0.18492278 -0.24476542 -0.28576994 -0.042640418 -0.087090634 0.08268138 -0.12487024 -0.07970411
-0.06985986 -0.19236366 0.22022465 -0.20382676 0.028444724 -0.0979997 0.19100712 0.2448445
0.24505511 0.07620839 -0.14964065 0.27824852 0.16286415 -0.15793854 -0.007516527 -0.022701012
-0.029294323 0.12585154 0.121040784 -0.104182504 0.37577683 -0.22366504 -0.17503761 0.14668329
-0.11907434 0.1554621 0.13150637 -0.18623696 -0.25565022 -0.14183824 -0.019925985 0.23269871
-0.09387922 -0.01672513 -0.07946989 0.111557074 0.060624607 0.060180783 -0.24937834 -0.18282478
0.27278146 0.059861172 -0.15733045 0.19459713 0.17526782 0.110970065 -0.039446387 -0.09446119
0.17771734 -0.087460324 -0.14909494 0.007765119 0.11966252 -0.025664147 0.13988222 -0.071646884
0.3018844 -0.010653163 0.0045342287 -0.17931548 -0.25312752 0.12556204 0.101628244 -0.2181194
-0.06666512 -0.19834627 0.01318692 -0.17039298 0.033645004 0.06521079 -0.098583564 -0.039333686

feature_extractor.block_1.rep.5.weight f4 [16]
00000000: c71a 213e 2f51 103f dd98 d33e ea06 5a3e
00000010: 64f7 bc3e 8fbc 723e 5e5c 943e a08d 353f
00000020: ee44 a43e c41c 533f 1878 043f 443a 973e
00000030: 848f 4f3e 5ec9 943e 02ff e23e a38d 613f
0.15732871 0.56373876 0.41327563 0.212917 0.36907494 0.23704742 0.2897672 0.7091923
0.3208384 0.8246577 0.5174575 0.2953664 0.2026959 0.2905988 0.4433518 0.88106745

feature_extractor.block_1.rep.5.bias f4 [16]
00000000: 8ad7 81bc 79f4 9e3c 0232 96bc 1aa1 043d
00000010: 5250 c43c 8333 3dbc bdf5 bb3b 1eef 70bd
00000020: 6acf e63b fb1e 533d bd35 b83d 7daf c7bd
00000030: 1a8f f03c cdf3 54bc f8cc 043d 8cf0 db3d
-0.015849847 0.019403683 -0.018334392 0.0323802 0.023964081 -0.011547926 0.0057360814 -0.05882179
0.0070437687 0.051543217 0.08994625 -0.097502686 0.029365111 -0.01299758 0.032422036 0.1073924

feature_extractor.block_1.rep.5.running_mean f4 [16]
00000000: abce 1f3d a1eb 70bd 80b2 8d3c 837a d1bd
00000010: 0112 ad3d 0ed7 3a3d a543 5cbe 4cb9 ccbd
00000020: 384f 75be e218 a53d b090 693d 8342 d43d
00000030: 8dc1 bbbc 9ea2 60bd 2b7b 28bd b4ca 65bb
0.039015453 -0.058818463 0.01729703 -0.102284454 0.084506996 0.04561525 -0.2151018 -0.0999628
-0.23956001 0.08061387 0.05702275 0.103642486 -0.02291944 -0.054842584 -0.041133087 -0.0035063447

feature_extractor.block_1.rep.5.running_var f4 [16]
00000000: 5238 9d3c 06f7 513c 45a0 673b 55f6 1f3c
00000010: 1bf9 093c f7c2 463c af4e 733c 61dc 293c
00000020: 4648 e03c 6b4a 823c ef47 0a3c cf1a 4a3c
00000030: 0a44 953b 5d6c 433c 686d 803b 4e5b b13c
0.019191895 0.012815243 0.003534333 0.00976332 0.008421208 0.012131444 0.014850303 0.010367484
0.027378213 0.015904626 0.008440002 0.012335493 0.00455523 0.011927691 0.0039192922 0.021649983

feature_extractor.block_2.skip.weight f4 [32, 16, 1, 1]
00000000: 8dd0 b4bd c42c 1cbe 4598 5a3e 5c85 e7bd
00000010: c859 2d3e f81b 05be 8f15 303e 3fe4 143e
00000020: 707f e8bd 0df2 2dbe 1793 a63d c181 5b3e
00000030: 36d9 c73c af8f ef3d 2233 833e 53e2 53bd
00000040: 439b 293d 9246 c1bd cb80 2dbd bbf1 433e
00000050: a257 b93d ad92 47be c6a9 cebd 3bce 2cbe
00000060: bbb2 013e a329 683e c4c5 acbd 272f dd3b
00000070: f7a2 6d3e e02f 6b3e 4075 7a3c d570 c6bd
00000080: 3895 dd3c 56eb fe3d f534 82be 748e 553a
00000090: f210 13bd 5f53 a6bd 736f 583d f205 bfbc
000000a0: d632 e2bc 1291 4fbe edc1 4a3e 3c27 a2bd
000000b0: 5fad 853a 3ece 023e d2ec dbbd b905 293e
000000c0: 1e5d f7bd 8ac9 aa3d 842f 04be 2682 5abe
000000d0: b119 87bc 772a 82be aec1 2ebe 83a4 803c
000000e0: 6dfb cbbb bcd8 5abe 00a1 a43b 0b29 6d3e
000000f0: abc2 a03d 16d1 3fbe 5e72 e93d 14b5 7ebe
00000100: df38 3cbe d1a2 053e d238 3cbe 2391 d93d
00000110: 483a ac3d b349 4dbe ad74 d1bd 4fe1 613e
00000120: f773 d2bd 5eb8 963c f88d 44bd 4cf5 3e3e
00000130: 3a70 9cbd 1693 063e af33 483e 649b 293e
00000140: 633c fcbd 1b52 d1bd f9e7 77bd 035a 1cbe
00000150: a1d9 043e 3057 3b3e ca75 233e 2b6a 1d3c
00000160: ba3b d9bd 3fa9 69b9 436b 0e3b 85da 47be
00000170: 022d b13c 3596 923e 92a6 203e f90f c23c
00000180: dd38 e2bd 38d7 a0bd 6f94 c7bd ae41 fa3c
00000190: 9a78 d23d 0b11 5abe b0f5 55bd 08a6 683e
000001a0: 7b90 503e 9c5d ab3d 1230 9cbd 67d0 583e
000001b0: 58f1 9b3d 6317 453d 839b 22be c360 79be
000001c0: 57d7 ea3c 03d7 8c3c f53c 05be 8b28 053e
000001d0: 3243 2e3e c1dd 433d 246d ec3d 4992 37be
000001e0: 1afb 3cbe 22cd 1c3d d103 a9bc 8ced 7c3c
000001f0: 1ac6 6a3e 2b29 3d3e e08b 4ebd 0380 193e
00000200: 2699 8abd d289 9ebc 2ade 8f3e 9bfe 413e
00000210: a289 09bd c69d 403e f0c7 0bbd da7e 333e
00000220: 2f6e 853e e99e 6d3e 6237 5d3e 59ef 313c
00000230: 48e0 793e 99aa 9d3d 6faf 0bbe c99d 78be
00000240: b556 04be cd40 09be 38a0 06bd bf1f 343d
00000250: ca80 e2bd 2048 d3bd 8ff3 c7bd 0d7f df3d
00000260: 1d21 50be b67e 2ebd 2a3b ebbd db1d 883d
00000270: 9552 e33d 1d01 923c 06aa b1be 35e1 05be
00000280: 742c 573d da12 983d 5dee 123e de45 b13d
00000290: 5a6a 023e 1fad d0bc e8a8 75be 932e 033e
000002a0: 3754 92be d9bd d23d c355 293e 623b 1d3d
000002b0: 5eb6 553e 20c4 e2bd c041 4fbd 5a06 49bd
000002c0: be15 b7bd d0e9 35be 63cc 56be cb67 193e
000002d0: b609 03be 3776 183e f8f6 02be c244 733e
000002e0: a6e0 433e bb64 213e 77f2 82be 0ad0 4c3e
000002f0: dedb 79be 9f26 1fbe dd0b 613e 42e2 243e
00000300: b97b 0b3e 9991 803d c281 853e 10b9 40bd
00000310: 74ee 183e fa7f 99bd 29e9 16be 25d7 ed3d
00000320: 4ade 843d ab01 2c3d ba9b 603e c8b4 193e
00000330: fb22 023d a1fa d0bd cf74 0fbd 3bce 123d
00000340: b052 2f3e edc2 52be 40f9 703e 1b0c 483e
00000350: 123d b13d ee69 9fbe ad58 06be 7644 833d
00000360: ff14 3ebe 18d6 403e 444c af3d a104 42bd
00000370: 72b1 83be e1e0 05bd ac7b 2cbe c63b 4abe
00000380: 7268 89bd 2bad 273d b4d4 953d 5b61 46bd
00000390: 09de 7e3e cb33 153e 2b14 2a3e 8b95 4b3e
000003a0: ec29 e5bd d1e3 61be e45a 553d 55dd 73be
000003b0: cfaa 32be b8c8 613e 031a 4b3d b67c 50be
000003c0: 2e97 08be 80b3 3ebe 6d8e eabd 47a2 0bbe
000003d0: b30d 59bd d63f e1bd fc73 313e 5817 e53d
000003e0: 5823 eb3d eb9e 493d 2b14 91bd 1450 b5bd
000003f0: fd1d 5f3d fff0 af3e d8ea 633e 02bc 033e
-0.088288404 -0.15251452 0.21347149 -0.11304733 0.1692878 -0.1299895 0.17195724 0.14540194
-0.11352432 -0.16986866 0.08133524 0.21436216 0.024395566 0.11697327 0.2562495 -0.05172951
0.041407835 -0.09437288 -0.042359155 0.19135182 0.09049918 -0.19489546 -0.100909755 -0.16875546
0.12665837 0.22672133 -0.08436158 0.0067500058 0.23206697 0.22967482 0.015286744 -0.0968949
0.027048692 0.124472305 -0.25431028 0.00081465323 -0.035904832 -0.081213705 0.05284066 -0.023318265
-0.027612131 -0.20270184 0.1980054 -0.079176396 0.0010198763 0.12773988 -0.10738529 0.1650609
-0.120783076 0.08339222 -0.12908751 -0.2133871 -0.016491743 -0.25423023 -0.1706607 0.015703445
-0.0062250406 -0.2137174 0.0050240755 0.23160188 0.0784963 -0.18732104 0.11398767 -0.24873763
-0.1838107 0.13050391 -0.1838105 0.10623386 0.08409554 -0.20047645 -0.10227332 0.22058605
-0.10276025 0.01839846 -0.047986954 0.18648261 -0.07638593 0.13142046 0.19550966 0.16563183
-0.12316205 -0.102207385 -0.06052396 -0.15268712 0.12973644 0.18294978 0.15962902 0.009607832
-0.10607095 -0.0002228366 0.0021731413 -0.19516952 0.021627907 0.28630224 0.15688542 0.023689257
-0.11046002 -0.0785355 -0.09745108 0.030548897 0.10276909 -0.21295564 -0.05223626 0.22719586
0.20367615 0.08367464 -0.07626356 0.21173249 0.07614392 0.048118006 -0.15879636 -0.24353318
0.028667135 0.01719237 -0.13011535 0.13003747 0.1701782 0.047818903 0.115442544 -0.17926897
-0.18455163 0.038281567 -0.020631703 0.015437495 0.22927132 0.18472736 -0.050426364 0.14990239
-0.06767492 -0.019352827 0.28099185 0.1894478 -0.033578523 0.18810186 -0.034126222 0.17528859
0.26060626 0.2320515 0.21603158 0.010860288 0.24401963 0.076985545 -0.13641141 -0.2427894
-0.12923701 -0.13403626 -0.03286764 0.043975588 -0.11059721 -0.10316491 -0.09763252 0.10912905
-0.20325132 -0.04260131 -0.11485894 0.066463195 0.11099736 0.017822796 -0.3470003 -0.13074191
0.05253263 0.07425471 0.14348741 0.08655904 0.12735882 -0.025473176 -0.23990214 0.12810735
-0.28579876 0.10290117 0.16536622 0.03838671 0.20870349 -0.11072564 -0.050599813 -0.049078323
-0.08939694 -0.17764974 -0.20976405 0.14981 -0.12796673 0.14888845 -0.12789524 0.23756698
0.19128665 0.15761082 -0.2557561 0.20001236 -0.24400279 -0.15542077 0.21977182 0.16101936
0.13621415 0.062777705 0.2607556 -0.04705149 0.14934713 -0.07495113 -0.14737381 0.11613301
0.06487711 0.04199378 0.21934405 0.15010369 0.03177164 -0.10204054 -0.035023507 0.035841208
0.17121387 -0.20582171 0.23532581 0.19535868 0.08654226 -0.31135505 -0.13119765 0.06409542
-0.18562697 0.1883167 0.085594684 -0.047367696 -0.25721318 -0.032685164 -0.16844052 -0.19749364
-0.067093745 0.04093663 0.073159605 -0.04843269 0.24889387 0.14570539 0.16609256 0.19881265
-0.111896366 -0.22059561 0.052088633 -0.238149 -0.17447971 0.22049224 0.049585354 -0.20360073
-0.1333892 -0.18623161 -0.11452947 -0.13636123 -0.05299158 -0.10998504 0.17329401 0.11186093
0.11481351 0.04922382 -0.07083925 -0.08853164 0.05447196 0.34363553 0.22257555 0.12864688

feature_extractor.block_2.skipbn.weight f4 [32]
00000000: c050 6f3f 0339 833e 462e ad3e e635 1d3f
00000010: 9b08 123f 79e0 193f b286 363f 8e65 7c3e
00000020: 853c 883e 1f8c f93e 1a46 893e 2383 d73e
00000030: 956d 2e3f 7a2c ee3e f377 9f3e 1436 863e
00000040: fba5 6d3f 3daa 6b3f b109 403f f712 cc3e
00000050: 469d c53e fc28 a83e f9eb 713f 1c46 133f
00000060: 537a 603f e01e 413f f33f 2e3f 4850 163f
00000070: 738d ec3e f5ab 043d e8ce 293f f32a 7c3f
0.9348259 0.25629434 0.33824366 0.6141037 0.5704438 0.60108143 0.7129928 0.24648115
0.26608673 0.48739716 0.26811296 0.42092237 0.6813596 0.46518308 0.31146201 0.26213133
0.9283139 0.9205664 0.7501479 0.3985822 0.38596553 0.3284377 0.9450069 0.57528853
0.8768665 0.75437737 0.6806633 0.5871625 0.46201667 0.032390554 0.6633134 0.98503035

feature_extractor.block_2.skipbn.bias f4 [32]
00000000: 91d7 8f3c 1704 ce3c 427b 83bc cebf 103d
00000010: 940d 083d 4a3d a03c 5448 023d 25c6 313d
00000020: 0428 5e3d aec0 ec3d 360f 623d 3790 86bc
00000030: 53cb 763d 5e85 443d 9357 7bbd d98b 7bbc
00000040: 2b28 9a3d 121f 743d aa98 da3d 7a5f fa3c
00000050: 3328 1c3d 6576 823c 1794 573d a388 65bc
00000060: fbde 173d 4e40 093d c38b 943b 7f57 d5ba
00000070: 98af 853c eaa8 58bb f6f4 8d3d 15c2 10bd
0.017558845 0.025148435 -0.016049985 0.03533917 0.033216074 0.019560475 0.03180726 0.043401856
0.05423738 0.11560188 0.055190288 -0.016426189 0.0602525 0.04797875 -0.061362814 -0.0153531665
0.07527193 0.059599943 0.106736496 0.030563105 0.038124274 0.015925596 0.052631464 -0.0140096275
0.037077885 0.03350859 0.0045332625 -0.0016276686 0.016319081 -0.0033059665 0.06931488 -0.03534134

feature_extractor.block_2.skipbn.running_mean f4 [32]
00000000: 92d3 033e cfc5 723d 7742 d53b 704d b8be
00000010: c645 433e 1d49 003e 8a8e 27be e095 1a3e
00000020: 5fdd 913e ec2b cdbe 33a3 3e3e 1834 fa3c
00000030: de5a 933e 1a4b c0bd d5b3 7abc b52f 143e
00000040: 4964 86bc 13ce 103e 4183 c2b9 bc29 8ebe
00000050: b5c6 9c3e daf7 333e 6312 2b3d 4f42 58be
00000060: 30f5 153e 6bcb 3ebe 2f8c c33e 633e 3b3e
00000070: afb8 08be 3af2 2abe cbaa 953e 48f6 22be
0.12873676 0.059270676 0.0065081674 -0.3599658 0.19069585 0.1252789 -0.16362968 0.15096235
0.28489205 -0.40072572 0.18616943 0.030542418 0.28780264 -0.093893245 -0.015301664 0.14471324
-0.016405242 0.14141111 -0.00037100355 -0.27766216 0.3062035 0.17575017 0.04176558 -0.21119045
0.14644313 -0.18632285 0.3819289 0.18285517 -0.13351701 -0.16693965 0.29231867 -0.15914261

feature_extractor.block_2.skipbn.running_var f4 [32]
00000000: 9ea6 783e d936 053e d652 df3d 9c5d 3f3f
00000010: 8ebf 563e 093e 6b3d a400 913e c1f7 8f3d
00000020: 7240 b43e 9c43 103e cd74 573e 0860 ba3e
00000030: 7422 133e 32a1 9c3e 8b4a b33e 65c1 1e3e
00000040: 965f 403e 3a6b 943d 7b01 9b3e 9d08 963d
00000050: 2fb2 613e efb4 133e 21f0 833e fecd 723e
00000060: 88a4 703e dc8e 5a3e 637f 8c3e d1d4 4e3e
00000070: ad3a e73d ed0c 8d3d cd29 eb3d 20c3 9d3e
0.2428231 0.13009204 0.109044716 0.7475221 0.2097151 0.05743221 0.283208 0.07029677
0.35205418 0.14088291 0.2104065 0.3640139 0.14368612 0.30591732 0.3501781 0.15503462
0.18786463 0.07247014 0.30274567 0.073258616 0.22040628 0.1442449 0.2576914 0.23711392
0.23500264 0.21343559 0.27440938 0.2019837 0.112904884 0.06887231 0.11482582 0.3081293

feature_extractor.block_2.rep.1.conv1.weight f4 [16, 1, 3, 3]
00000000: dc49 13be 05a5 65bd 15d2 30be 5a38 b7be
00000010: 9268 12be 56ea 633e 2521 593d ee01 0bbe
00000020: 0481 e1bd 5772 953d 13ab 633e 19a7 143e
00000030: 0bdb f73d 584e 7e3e 6479 ffbc 8b34 f5bd
00000040: 33d4 c73b f2ab 0b3d 176b 943d 6511 7e3e
00000050: acbc a5bc aac6 1bbd 804b 963e 96d0 26be
00000060: 1e87 0e3e c2a3 0c3e 9ddb 0f3e 897f 46bc
00000070: 5b30 ebbd 45d5 8a3e f565 023e d3cc a2be
00000080: 0786 83bd 84bb a33e 1759 683d ef1b 8b3d
00000090: cf07 a53e c197 943e eb0c 88bc 3c80 893e
000000a0: 4f7c f9bc 7116 d33d 0e83 db3d dcfb f33d
000000b0: b24b 5c3b 5da1 7abe 1034 913e 5a88 e5bd
000000c0: 06a1 893e 7f56 533e 7b3b 0e3e fc33 423e
000000d0: 9281 1cbe 135a 72be f68c 23be bed1 763d
000000e0: a343 5b3e 3781 693e 4a81 9a3e efc6 9c3e
000000f0: bbf9 75be 38cb 44bc 2ebf eebd 0a88 a03e
00000100: 456f 983e 9dc1 97bd df68 90be 8742 8d3e
00000110: 1bd3 4fbe ebfc 823e dea6 04be 293a 693d
00000120: 179c 6fbd 89ee a6be 8a9c 2cbd 66d2 bfbe
00000130: b1f3 55be 110b 76be 6a0e 823c ff48 c03d
00000140: 9ada 8ebe 9fb9 ea3d 2f1f b4bc d07e 693e
00000150: 0d7f 343e 1971 2a3e 2a48 123d 8ccd b8be
00000160: 9a0a cabd 3dd8 273e 2a8e 7ebe fe02 673e
00000170: c97a 03be 332e 9e3b 796e 94be f123 7e3d
00000180: 1e60 303e 2f26 f2bd d217 66be fae8 20be
00000190: e110 5fbe 5d83 65be f3c9 553e 8b98 91be
000001a0: 7ee2 6a3e fd25 34be b130 c23d 0fd2 8e3e
000001b0: fa22 eabd 4b34 f03c 0272 993e d233 efbc
000001c0: 5714 0ebc c568 4abe 1f32 a73e a290 ae3e
000001d0: 87cd 923e 0ef7 97be ff45 343d c7b8 d1bd
000001e0: be18 9dbe d468 67be 7bd5 f3bd 0b7e 66be
000001f0: bad9 39be ae5c 103e ccad 83bd d292 b9bb
00000200: b607 993e ca0c 8d3d 0356 8ebe b543 67be
00000210: ebcd 12be 8487 8f3e 14af 89bd 8332 b1bd
00000220: 140b 9dbd 7057 cebd 8a1a bc3c e3da 3fbb
00000230: 07b6 44be 5098 313e fdcb 023e 9855 b4be
-0.14383644 -0.056065578 -0.1726764 -0.3578518 -0.14297703 0.22257361 0.053010125 -0.13574955
-0.11010936 0.07297199 0.22233228 0.14516868 0.12102326 0.24834573 -0.031185813 -0.119729124
0.006098294 0.034099527 0.07246988 0.24811323 -0.020231567 -0.038031258 0.29354477 -0.16290507
0.1391873 0.13734344 0.1404862 -0.012115368 -0.114838324 0.27115837 0.12734206 -0.31796893
-0.06422048 0.31979 0.056725588 0.06792437 0.3223252 0.2902203 -0.016607722 0.26855648
-0.030454783 0.10307015 0.10718356 0.11913273 0.0033614454 -0.24475618 0.28360033 -0.112076476
0.26880664 0.20638464 0.13889877 0.18965143 -0.15283802 -0.23667173 -0.15971741 0.06025862
0.2141252 0.22803198 0.30176765 0.30620524 -0.24021046 -0.012011342 -0.116575584 0.3135379
0.29772392 -0.07409976 -0.2820501 0.2758982 -0.20295374 0.25583586 -0.1295428 0.05694023
-0.05849847 -0.32603863 -0.042141475 -0.3746521 -0.20893742 -0.24027659 0.015876014 0.09388923
-0.27901155 0.11461186 -0.021987526 0.22802281 0.17626591 0.16644706 0.035713352 -0.3609432
-0.09865303 0.16391082 -0.24858919 0.22559735 -0.12839808 0.0048272847 -0.28990534 0.062045995
0.17224166 -0.11823689 -0.22470024 -0.15713874 -0.21783783 -0.22413392 0.20877819 -0.28436694
0.22937962 -0.17592616 0.094819434 0.27894637 -0.114324525 0.02932181 0.29969794 -0.029199515
-0.008671842 -0.19766529 0.32655427 0.3409472 0.2867243 -0.29680675 0.044012066 -0.102403216
-0.3068294 -0.22598583 -0.119059525 -0.22509019 -0.18149462 0.14097854 -0.064296335 -0.0056632543
0.29888695 0.06887205 -0.27799997 -0.22584422 -0.14336364 0.28033078 -0.067228466 -0.086522125
-0.076681286 -0.10075271 0.022961874 -0.0029274754 -0.19210063 0.17343259 0.12773128 -0.35221553
